autoencoder.pth (torch, 8503 bytes, 8 tensors)

encoder.0.weight f4 [64, 8]
0	0x3c5f6721	0.013635428
1	0x3d5d2ffe	0.054000847
2	0xbd9c9477	-0.07645505
3	0x3e411fd5	0.18859799
4	0x3e664e3e	0.22490785
5	0xbd3ad086	-0.04560902
6	0x3efcf628	0.49406552
7	0x3d1312f2	0.03590674
8	0x3e8ffd68	0.2812302
9	0x3e82ad34	0.25522768
10	0xbd717d14	-0.058957174
11	0xbebf4b29	-0.3736203
12	0xbf4bc6f7	-0.7960047
13	0x3e605cc7	0.21910392
14	0xbdecba7d	-0.11559007
15	0x3e20c72f	0.15700983
16	0x3dbc3c4d	0.09191189
17	0xbde5277a	-0.1118917
18	0xbeb027e4	-0.34405434
19	0x3e6e8655	0.23293431
20	0xbe307a0d	-0.17234059
21	0xbd7a6ece	-0.061140828
22	0xbf13d0a8	-0.5774026
23	0xbe0c7dc8	-0.13719857
24	0x3e4b4edd	0.19854303
25	0xbdc001cb	-0.09375342
26	0xbe108a9e	-0.14115378
27	0xbee70431	-0.45120385
28	0x3ec48466	0.38382262
29	0xbe117498	-0.14204633
30	0x3f1b4962	0.6065885
31	0x3e3cebda	0.18449345
32	0xbd5770d8	-0.05259785
33	0x3ea8a237	0.3293626
34	0x3e4662d3	0.19373636
35	0x3da23345	0.07919935
36	0xbe759309	-0.2398187
37	0x3e36ba5c	0.17844528
38	0xbec05f37	-0.37572643
39	0x3de31d47	0.110895686
40	0x3e5df74d	0.21676369
41	0x3ef3d26d	0.4762148
42	0x3e367ebb	0.17821781
43	0xbe8da609	-0.27665737
44	0xbef64bc8	-0.48104692
45	0x3e537768	0.20651019
46	0x3e170de7	0.14751397
47	0x3c2bcc7a	0.010485763
48	0x3e3a7e30	0.18212199
49	0x3e1abc3a	0.15110865
50	0xbebdd285	-0.37074676
51	0xbe85a9a5	-0.2610599
52	0x3bf59a9d	0.007495238
53	0x3d05d5cf	0.032674607
54	0xbe4ca91a	-0.19986382
55	0xbdda2ca6	-0.10653047
56	0xbdc38a17	-0.09547823
57	0xbc5c2dd4	-0.013438661
58	0x3f29cdaa	0.66329443
59	0xbccd42b5	-0.025056222
60	0x3e52aefc	0.20574564
61	0x3a73bea9	0.0009298125
62	0x3f2bad2f	0.6706113
63	0x3ede187d	0.43378058
64	0x3eb01cd6	0.34397
65	0x3ea5a933	0.3235565
66	0xbc8da4bd	-0.017290467
67	0x3dd43893	0.10362353
68	0x3ee49b87	0.44649908
69	0xbe0f70d4	-0.14007884
70	0x3ecf0cd0	0.40439463
71	0x3ec6239e	0.3869905
72	0xbd5b9b0f	-0.053614672
73	0x3d27c61e	0.040960424
74	0xbc9372e4	-0.01799912
75	0xbf38d0db	-0.7219369
76	0x3ec88a4c	0.39168012
77	0x3d4f7f46	0.050658487
78	0x3d8fdb5d	0.07024262
79	0xbb4fa7b9	-0.0031685664
80	0xbcd3797e	-0.025814768
81	0x3da42499	0.08014793
82	0xbd6e3fe2	-0.058166392
83	0xbf23f6ab	-0.6404826
84	0x3ec5ba12	0.38618523
85	0xbc8eb163	-0.017418569
86	0x3e07c0dd	0.13257165
87	0xbda62d66	-0.08114128
88	0x3e08d085	0.13360794
89	0xbe44179f	-0.19149636
90	0x3d331640	0.04372239
91	0x3f0d1122	0.5510427
92	0xbebd8e5b	-0.3702267
93	0x3e1ce58f	0.15321945
94	0xbf83e6b9	-1.0304786
95	0xbc35c8cc	-0.011095237
96	0xbd000c21	-0.031261567
97	0x3c84a395	0.016191283
98	0x3e8e0b2c	0.27742898
99	0x3d462966	0.048379324
100	0x3e03808f	0.1284201
101	0x3d356360	0.044284225
102	0x3f4082fe	0.7519988
103	0x3e343e20	0.17601824
104	0x3ae6b9f4	0.0017603026
105	0xbc3fcb64	-0.011706207
106	0x3e9df90a	0.30854064
107	0xbe24a1f2	-0.16077402
108	0x3e36dd93	0.17857961
109	0xbd667a0d	-0.05626874
110	0x3f15f107	0.58570904
111	0x3e6df3e6	0.23237571
112	0xbdf26ea5	-0.1183751
113	0xbc12787a	-0.008939857
114	0xbc76f065	-0.015071963
115	0xbf3e527f	-0.7434463
116	0xbd21ef1f	-0.039534684
117	0x3c8ffe47	0.017577304
118	0x3cb589a1	0.022160353
119	0xbc29d98a	-0.010366807
120	0xbe136864	-0.1439529
121	0xbe257023	-0.16156058
122	0x3daf9c2c	0.08574709
123	0xbf10d94c	-0.5658157
124	0x3ef410ef	0.4766917
125	0xbe5f1089	-0.21783651
126	0x3d15dcc3	0.036587488
127	0xbda94034	-0.08264199
128	0x3e4d63cd	0.20057602
129	0x3e036be0	0.1283412
130	0xbe6327d7	-0.22183166
131	0xbef86834	-0.48517
132	0xbf3525f5	-0.7076104
133	0x3d888d5a	0.06667586
134	0x3d740dc1	0.05958343
135	0x3e777f93	0.2416976
136	0x3d701af4	0.058619455
137	0xbe8fd00a	-0.2808841
138	0xbe44d7f9	-0.19223012
139	0xbc82f52d	-0.01598605
140	0x3d265139	0.040604804
141	0xbeb8ecfd	-0.36118308
142	0xbe90cea5	-0.28282657
143	0x3e654591	0.22389819
144	0x3f260f7c	0.6486738
145	0x3c0a9713	0.00845887
146	0x3e17125a	0.14753094
147	0x3d5e48c2	0.054268606
148	0xbdaa26d4	-0.08308187
149	0xbe295183	-0.16535
150	0xbdd7c3c9	-0.1053539
151	0x3da97b1a	0.08275433
152	0x3d1a9446	0.03773906
153	0xbd331bc4	-0.04372765
154	0xbed474ed	-0.41495457
155	0x3e1084a9	0.14113106
156	0xbe60e485	-0.21962173
157	0xbce84721	-0.02835423
158	0x3c26b05d	0.010173884
159	0xbee301be	-0.44337267
160	0xbe2ff835	-0.17184527
161	0x3d1a6537	0.037694182
162	0xbd325730	-0.04354018
163	0xbefa8226	-0.4892742
164	0x3f0dcaa3	0.55387324
165	0xbe7f918f	-0.2495787
166	0x3cad90ff	0.021187304
167	0xbda6f7bd	-0.08152721
168	0xbcb963d9	-0.022630619
169	0xbdf08c43	-0.11745503
170	0xbe3e90bb	-0.18609898
171	0xbec98a88	-0.39363503
172	0xbc9b7d8c	-0.018980764
173	0x3e148424	0.14503533
174	0x3dccea1b	0.100055896
175	0xbe7e70a9	-0.24847664
176	0xbe502b53	-0.20329027
177	0x3e066ed0	0.13128209
178	0x3e2691ca	0.16266552
179	0xbe8f3f07	-0.27977774
180	0xbce55e46	-0.027999055
181	0x3dda8d4e	0.10671483
182	0x3ec4d7d0	0.38445902
183	0x3e291a23	0.16513877
184	0x3eb88741	0.3604069
185	0x3eb7981f	0.35858247
186	0xbe1be474	-0.15223867
187	0xbdad0127	-0.084474854
188	0xbee63d6e	-0.44968742
189	0x3e616df5	0.22014602
190	0x3c70c210	0.014694706
191	0x3cb21f5e	0.021743473
192	0xbd920e29	-0.07131607
193	0x3e3ea5fc	0.18618006
194	0x3e545a90	0.20737672
195	0x3df00e42	0.117214695
196	0x3e934d0e	0.28769726
197	0x3d630691	0.055426184
198	0x3f11facd	0.57023317
199	0x3e60c236	0.21949086
200	0x3e9f2e6e	0.3109011
201	0xbef7b63f	-0.4838123
202	0xbc6b82d1	-0.014374451
203	0xbe6e84a3	-0.23292784
204	0xbea6507b	-0.32483277
205	0x3e26cc01	0.16288759
206	0xbea10b01	-0.31453708
207	0x3e144732	0.14480284
208	0xbe25af7b	-0.16180222
209	0xbe0b81d0	-0.13623738
210	0xbcacecff	-0.021109102
211	0xbe993325	-0.29921833
212	0x3edcce0b	0.43125948
213	0xbde68f93	-0.11257853
214	0x3e3ba250	0.18323636
215	0xbe158db8	-0.14604843
216	0x3e33c0da	0.17554036
217	0x3cf0718f	0.029351024
218	0xbf1d77cf	-0.6151094
219	0xbe344e65	-0.1760803
220	0xbe287060	-0.16449118
221	0xbd21b74a	-0.03948144
222	0xbeb3102b	-0.34973273
223	0xbeb91096	-0.36145467
224	0x3e265481	0.16243173
225	0xbe116194	-0.1419738
226	0x3dbad87c	0.09123322
227	0xbd4043bd	-0.0469396
228	0xbef9c3ed	-0.48782292
229	0x3e5e58dd	0.21713586
230	0x3ea342b6	0.31886834
231	0x3eba0085	0.3632852
232	0xbe783782	-0.24239925
233	0xbe4e0483	-0.20118909
234	0x3e410499	0.1884941
235	0x3e0085e2	0.12551072
236	0x3f18eca9	0.59736115
237	0x3e7006e2	0.23440126
238	0x3e0507ea	0.129913
239	0x3e11616d	0.14197321
240	0x3e839849	0.25702122
241	0x3a36a493	0.00069672725
242	0x3e379929	0.1792952
243	0xbd8d8485	-0.06910042
244	0xbe402a71	-0.1876619
245	0xbeac494f	-0.3364968
246	0x3eead15c	0.45862854
247	0x3e2e6e14	0.17034179
248	0xbbcba7a5	-0.006215053
249	0xbd8cb4ba	-0.06870408
250	0xbe3a1b85	-0.1817456
251	0xbf36a575	-0.7134622
252	0x3eb8a3a0	0.36062336
253	0xbde62b7e	-0.11238764
254	0x3d4de424	0.0502664
255	0xbe3f21e9	-0.1866528

encoder.0.bias f4 [64]
0	0xbc62dd5f	-0.013846724
1	0x3c197e20	0.009368449
2	0x3f26c999	0.65151364
3	0xbe4c0ac1	-0.19925977
4	0xba1ae53d	-0.0005908793
5	0xbee9e336	-0.4568116
6	0x3e7f3bce	0.24925157
7	0xbf28808a	-0.65821135
8	0xbe56118a	-0.20905128
9	0xbe94a600	-0.29032898
10	0xbe7d5f81	-0.24743463
11	0xbe9efa11	-0.3105016
12	0xbdee838d	-0.11646185
13	0x3d14525d	0.03621136
14	0xbeb4797f	-0.35248944
15	0x3e542a08	0.20719159
16	0xbe06b546	-0.13155088
17	0xbe5c8a7e	-0.21537206
18	0xbf053f61	-0.52049834
19	0xbf02d14a	-0.511006
20	0xbf885852	-1.0651953
21	0xbe2b54ad	-0.1673152
22	0x3c98633f	0.018602012
23	0x3f07d46a	0.53058493
24	0x3e1e0c61	0.1543441
25	0xbedebca2	-0.4350329
26	0x3d9ba628	0.07600051
27	0x3eca1ad3	0.3947359
28	0x3e8c2d82	0.2737847
29	0xbf153b63	-0.5829374
30	0xbe0fa80f	-0.14028953
31	0xb9a933e4	-0.00032272853
32	0x3dd10029	0.10205109
33	0xbda0a071	-0.07843102
34	0x3e3cff07	0.1845666
35	0xbf0fef2a	-0.5622431
36	0xbd6d0875	-0.057869393
37	0xbdac07a3	-0.08399894
38	0x3e5a0fab	0.2129504
39	0xbea54fad	-0.3228735
40	0x3e940fcd	0.28918305
41	0x3e8c78e8	0.27435994
42	0x3f08ae75	0.533912
43	0x3c678b32	0.014132308
44	0xbda55069	-0.08071978
45	0x3e27f8db	0.16403525
46	0xbdfb1d27	-0.1226142
47	0x3dd0abaa	0.10188992
48	0x3e8d0b10	0.27547503
49	0x3ecb8aec	0.39754426
50	0x3f0c08c2	0.54700863
51	0xbf1d1885	-0.6136554
52	0xbdb9b552	-0.09067787
53	0xbf02a772	-0.5103675
54	0x3db618c4	0.088914424
55	0x3df39a0e	0.11894618
56	0xbd27254e	-0.04080706
57	0x3e0d045a	0.13771191
58	0xbecb70bb	-0.39734444
59	0x3d800700	0.06251335
60	0xbd0780a9	-0.033081684
61	0xbeadd138	-0.33948684
62	0x3ef737b7	0.48284695
63	0xbe906c96	-0.28207844

encoder.2.weight f4 [2, 64]
0	0x3e129453	0.14314394
1	0x3e52b588	0.20577061
2	0xbeaa5984	-0.3327142
3	0xbe749544	-0.23885065
4	0xbe59c6a3	-0.2126718
5	0x3e7e6a15	0.24845155
6	0xbdce9301	-0.100866325
7	0xbf4aed88	-0.79268694
8	0x3e8b129d	0.27162638
9	0x3e3a5246	0.18195447
10	0x3e173eb6	0.14770016
11	0x3ee557ee	0.44793648
12	0x3eece671	0.46269563
13	0x3eba7fe5	0.364257
14	0x3dbfe2f6	0.09369461
15	0x3e2d07b4	0.1689747
16	0x3e6ee4b2	0.23329428
17	0xbe05d6d4	-0.13070232
18	0xbedabaab	-0.4272054
19	0x3ea4b66c	0.32170427
20	0xbed7aa0f	-0.42121932
21	0x3e866625	0.26249805
22	0x3cc4fc9f	0.02404624
23	0xbdab7df8	-0.08373636
24	0x3e9377fe	0.28802484
25	0xbe97b91b	-0.29633412
26	0x3ddba051	0.10723937
27	0xbe382405	-0.1798249
28	0x3e0c37c2	0.13693145
29	0x3df9066f	0.1215943
30	0x3dbf3442	0.09336139
31	0x3e520dd6	0.2051309
32	0xbc511fde	-0.012763945
33	0xbe0c1090	-0.13678193
34	0x3da162ba	0.07880159
35	0xbe5a0393	-0.21290426
36	0xbe8917c0	-0.26775932
37	0xbdb2b1da	-0.08725329
38	0xbe8c8a78	-0.27449393
39	0x3e8101d0	0.25196695
40	0x3ebec90e	0.37262768
41	0x3de4c336	0.11170046
42	0xbea483db	-0.32131848
43	0xbc921344	-0.017831452
44	0xbcf30134	-0.02966366
45	0xbe619dd1	-0.22032858
46	0x3e3b0aef	0.1826589
47	0xbda28d80	-0.07937145
48	0xbe79d23f	-0.24396609
49	0xbe3a2f19	-0.18182029
50	0xbe869696	-0.26286763
51	0xbea9e702	-0.33184057
52	0xbe71f33c	-0.23627943
53	0xbedb2aca	-0.42806083
54	0x3eaf534f	0.34243247
55	0xbe12a6d1	-0.14321448
56	0xbe151552	-0.14558914
57	0x3ec44a78	0.38338065
58	0x3ec62907	0.38703176
59	0x3e2913b3	0.16511421
60	0xbe575a7c	-0.21030611
61	0xbe24a968	-0.16080248
62	0xbcbc934b	-0.023019454
63	0xbdb34769	-0.08753855
64	0xbcbedfd2	-0.023300085
65	0xbe876b34	-0.26448977
66	0xbe30edea	-0.17278257
67	0x3eede526	0.4646389
68	0x3e14fa12	0.14548519
69	0xbedf2d6f	-0.4358935
70	0x3dcde472	0.10053338
71	0xbeb55169	-0.35413674
72	0xbe4ded77	-0.20110117
73	0xbebef577	-0.3729665
74	0xbea5576f	-0.3229327
75	0xbe699ad7	-0.22812973
76	0x3e8ee166	0.2790634
77	0x3e5b8e3c	0.21440977
78	0xbebde913	-0.37091884
79	0xbe40a58d	-0.18813153
80	0xbe388fa3	-0.18023543
81	0xbcc4b2f2	-0.024011109
82	0x3ecb157a	0.39664823
83	0x3e8a4fba	0.27013952
84	0x3f47552e	0.7786435
85	0xbdef7a77	-0.1169328
86	0x3df1480f	0.11781322
87	0x3e6daf01	0.2321129
88	0xbd243c42	-0.04009653
89	0x3ebf6e65	0.37388912
90	0xbe00bf37	-0.12572943
91	0xbd97457b	-0.07386299
92	0x3d1f3ea4	0.038878098
93	0xbed72e63	-0.42027578
94	0x3e896e59	0.26842
95	0xbe803144	-0.25037587
96	0xbe3aefd6	-0.18255553
97	0x3de8579c	0.11344835
98	0x3d5749e8	0.052560717
99	0x3efdfeac	0.49608362
100	0x3de5019a	0.11181946
101	0x3e44ee35	0.19231494
102	0xbd0cee6f	-0.034407075
103	0xbea927ff	-0.33038327
104	0x3dacff4a	0.0844713
105	0x3e4ef6b5	0.20211299
106	0x3db5ceca	0.088773325
107	0x3df3e40a	0.119087294
108	0xbe3db39a	-0.18525544
109	0x3ebc51c1	0.36781123
110	0xbdf31ab0	-0.118703246
111	0xbdd6b095	-0.10482899
112	0x3e76c99b	0.24100344
113	0xbe253af0	-0.16135764
114	0xbd92033f	-0.071295254
115	0x3ecc1f0e	0.39867443
116	0x3dc39646	0.09550147
117	0xbe2a3ce5	-0.16624792
118	0x3d9b736d	0.07590375
119	0x3e1dc7ae	0.15408203
120	0xbd48b153	-0.048997235
121	0xbe402eb3	-0.18767814
122	0x3d8702d7	0.065923385
123	0xbe9049cc	-0.28181303
124	0x3eba115d	0.36341372
125	0xbe09cd11	-0.13457133
126	0x3e8bbb64	0.27291405
127	0xbe324daf	-0.17412446

encoder.2.bias f4 [2]
0	0x3c9aecc7	0.018911732
1	0x3d37269d	0.04471456

decoder.0.weight f4 [64, 2]
0	0xbca9f32f	-0.020745842
1	0x3f3a0095	0.7265714
2	0x3e2b9c4a	0.16758838
3	0xbee3e323	-0.4450923
4	0x3f1d486a	0.6143862
5	0x3eca31b3	0.39491042
6	0x3ea54205	0.3227693
7	0xbf48aaf6	-0.78385866
8	0xbeead72d	-0.4586729
9	0xbe881b57	-0.2658336
10	0xba6a5469	-0.00089389697
11	0x3f0643d6	0.5244726
12	0x3e8d02f6	0.27541322
13	0xbf1e36e6	-0.6180252
14	0x3d073fc8	0.03301981
15	0x3ce23a63	0.027615732
16	0xbe89386e	-0.26800865
17	0xbf3ce4a9	-0.7378641
18	0xbedf0a5b	-0.43562588
19	0xbe771866	-0.24130401
20	0x3e15e9dd	0.14639993
21	0xbf3bcad0	-0.7335634
22	0x3f1cd25e	0.61258495
23	0xbdc2a673	-0.09504404
24	0x3ef1f527	0.4725735
25	0xbf3c0436	-0.73443925
26	0x3e2ee3bf	0.17079066
27	0xbf2d7911	-0.6776286
28	0x3e3ebbc0	0.18626308
29	0xbeeec35b	-0.4663342
30	0x3e0cc3bd	0.13746543
31	0xbf233d64	-0.6376555
32	0xbef2efd2	-0.47448593
33	0xbf4126a6	-0.754496
34	0xbf4af1c2	-0.79275143
35	0xbee4174f	-0.44549033
36	0xbe07510d	-0.13214512
37	0xbef79356	-0.48354596
38	0xbec50adf	-0.38484856
39	0x3f44bcc3	0.7685053
40	0xbcc84d23	-0.024450844
41	0xbd862c91	-0.06551469
42	0xbeb49a0e	-0.35273784
43	0xbf16c743	-0.588978
44	0x3e2f447f	0.17115973
45	0xbea81eeb	-0.3283609
46	0xbf3a79f8	-0.7284236
47	0xbecb7a97	-0.39741966
48	0xbec38e74	-0.3819462
49	0x3f3ec033	0.7451202
50	0x3f18bd0f	0.5966348
51	0x3e1adecb	0.15124051
52	0x3ddb93d4	0.10721555
53	0xbeb88a4e	-0.36043018
54	0x3ec0beb3	0.37645492
55	0xbf3aa6ae	-0.72910583
56	0xbf102afa	-0.5631558
57	0x3ee39f6e	0.44457573
58	0x3e96126b	0.29310927
59	0x3f093ecf	0.53611463
60	0xbe686565	-0.22694929
61	0x3f1c9ba5	0.61174995
62	0x3d93d3af	0.0721811
63	0x3dbf359c	0.09336397
64	0xbebb53da	-0.3658741
65	0x3de35ab7	0.11101287
66	0xbea8c2bf	-0.3296108
67	0x3f59dc65	0.8510192
68	0xbda58cc4	-0.080834895
69	0xbcfd6d5b	-0.030935934
70	0x3e2d6310	0.1693232
71	0xbefc8e9c	-0.49327552
72	0x3e0984c2	0.1342955
73	0xbf02c99e	-0.51088893
74	0x3e5b417f	0.21411704
75	0x3e03fd05	0.12889488
76	0x3f16eda8	0.58956385
77	0x3ec43bc5	0.3832685
78	0xbf313b3f	-0.6923103
79	0xbf07b2b1	-0.53007036
80	0x3f45a9a4	0.77211976
81	0xbf20f251	-0.62869745
82	0xbe23819c	-0.15967411
83	0xbe4faf71	-0.2028177
84	0x3e3f11f6	0.18659195
85	0xbedd94fb	-0.43277726
86	0x3f735923	0.95057887
87	0xbd3888df	-0.045052405
88	0x3ef4babb	0.47798714
89	0xbed71b04	-0.420128
90	0x3e0082e4	0.12549931
91	0xbe0f4596	-0.13991389
92	0x3c85143c	0.016245
93	0x3ef14c99	0.47128752
94	0xbf10c800	-0.56555176
95	0xbea1254f	-0.31473777
96	0x3e0a230d	0.13489933
97	0xbf197b1a	-0.59953463
98	0x3ed56496	0.41678303
99	0x3e6f4d39	0.23369302
100	0xbed653bd	-0.41860762
101	0xbe2a28f0	-0.16617179
102	0x3f8cd161	1.1001397
103	0x3f1fd6cb	0.62437123
104	0xbe3d9d0e	-0.18516943
105	0x3edf5b0f	0.4362416
106	0x3e455762	0.19271615
107	0x3eb357a5	0.35027805
108	0xbf084160	-0.53224754
109	0xbe9d18a0	-0.3068285
110	0x3e6ad7c0	0.22933865
111	0xbf3cf6e3	-0.7381422
112	0xbddfab18	-0.109213054
113	0xbf34bd6f	-0.7060155
114	0xbd93ef0d	-0.0722333
115	0xbe6729c7	-0.2257453
116	0x3f593f85	0.8486255
117	0x3ef7552d	0.4830717
118	0x3e9c6ef0	0.3055339
119	0xbf252219	-0.64505154
120	0xbf4c0624	-0.7969687
121	0x3ea99ceb	0.3312753
122	0x3f13bafa	0.5770718
123	0xbf252607	-0.6451115
124	0x3eb69fe4	0.35668862
125	0x3f09d95b	0.53847283
126	0xbe81e83f	-0.25372502
127	0x3f2e0f5d	0.6799219

decoder.0.bias f4 [64]
0	0xbf03c969	-0.514792
1	0x3ddb7f75	0.1071767
2	0x3eb1f452	0.34756714
3	0xbb6ecada	-0.0036436827
4	0x3e36a88f	0.17837738
5	0x3e79960d	0.24373646
6	0xbd62c07f	-0.05535936
7	0x3f0ba0cd	0.5454224
8	0x3de9d13b	0.11416861
9	0x3e1bfd39	0.15233316
10	0xbf0e76e4	-0.5565016
11	0xbf09688c	-0.5367515
12	0xbdb1fa19	-0.086902805
13	0xbf437630	-0.76352215
14	0x3f3ac888	0.72962236
15	0xbf427f77	-0.75975746
16	0x3eb0b70f	0.34514663
17	0x3e883354	0.2660166
18	0x3e0ae4db	0.13563864
19	0xbe9c6073	-0.30542335
20	0x3f0df9b1	0.55459124
21	0x3f195045	0.59888107
22	0x3ef45999	0.47724608
23	0xbf498c1f	-0.7872943
24	0x3e58fbed	0.21189852
25	0x3ed2561b	0.41081318
26	0x3f0c01e4	0.54690385
27	0xbdf80485	-0.12110237
28	0x3ecda5c5	0.40165535
29	0x3f210627	0.6290001
30	0xbf5e12c9	-0.86747414
31	0xbf251e03	-0.6449892
32	0x3e6205c5	0.22072513
33	0xbe374aa6	-0.1789957
34	0xbea16cef	-0.31528422
35	0xbf0e4585	-0.5557483
36	0xbf1858c4	-0.59510446
37	0x3e69b7b6	0.22823986
38	0xbf88c5ff	-1.0685424
39	0xbf2417de	-0.6409892
40	0xbdae5148	-0.08511597
41	0xbdc17553	-0.09446206
42	0x3f277190	0.6540766
43	0xbf0b1dd0	-0.54342365
44	0x3f05a9e6	0.5221237
45	0x3eab6149	0.3347266
46	0xbec7834c	-0.3896736
47	0x3e521d8c	0.20519084
48	0xbf4446e9	-0.766707
49	0x3ea0a61c	0.3137673
50	0x3f1825af	0.594325
51	0xbed46a0e	-0.41487163
52	0xbcb5398c	-0.022122167
53	0x3f0b4618	0.5440383
54	0x3e5b6ffe	0.2142944
55	0xbf50ebc5	-0.81609756
56	0xbf3136cf	-0.69224256
57	0x3e9daed0	0.30797434
58	0xbeab15a2	-0.33414942
59	0x3e7b9d61	0.24571754
60	0xbee4834e	-0.44631428
61	0x3f098477	0.5371775
62	0x3d1720b1	0.03689641
63	0xbf7880dd	-0.9707163

decoder.2.weight f4 [8, 64]
0	0x3e7d30ae	0.24725601
1	0x3e3ee204	0.18640906
2	0x3da5738d	0.0807868
3	0x3dd1d8ad	0.10246406
4	0xbe284909	-0.1643411
5	0xbd8d0730	-0.068861365
6	0xbc4f5d27	-0.012656487
7	0x3d4c7e23	0.04992498
8	0xbd1f7cef	-0.038937505
9	0x3dc1f10f	0.094698064
10	0xbce0688a	-0.027393598
11	0xbc9ceee9	-0.01915689
12	0xbe3ab50a	-0.18233123
13	0x3ce031de	0.027367529
14	0x3d8b38c3	0.06797936
15	0x3e819209	0.25306728
16	0xbe3edfe5	-0.18640096
17	0xbe18a040	-0.1490488
18	0x3d30dcbf	0.04317927
19	0x3dc9f18f	0.09860527
20	0xbdb59a47	-0.08867317
21	0xbe2852f9	-0.16437902
22	0xbdce100d	-0.10061655
23	0x3e00a327	0.12562238
24	0x3deb5fd4	0.11492887
25	0x3da5ea42	0.08101322
26	0x3d579348	0.052630693
27	0x3d9d3b82	0.07677366
28	0xbd335f82	-0.043792255
29	0xbd3831aa	-0.04496924
30	0x3e5edfd6	0.21765074
31	0x3b5ddbb6	0.0033852882
32	0xbd45871a	-0.048224546
33	0x3de999cf	0.1140629
34	0x3b077fc0	0.002067551
35	0xbc696f5d	-0.0142477425
36	0x3dd77acd	0.10521469
37	0x3dba98ca	0.091111735
38	0x3dc7d931	0.09758223
39	0x3e405fb7	0.18786512
40	0xbd8470ad	-0.06466804
41	0x3c3a1c66	0.01135931
42	0x3dcd31b5	0.100192465
43	0x3cfa83aa	0.03058036
44	0xbe3e7027	-0.1859747
45	0xbd91c643	-0.071178935
46	0x3e7b823a	0.24561396
47	0x3bc1ea97	0.005917858
48	0x3e881ff2	0.26586872
49	0x3d025050	0.031814873
50	0x3d2a58fe	0.041588776
51	0xbdc8ed9c	-0.098109454
52	0x3decb184	0.11557296
53	0x3ad3caad	0.0016158425
54	0xbd3c1819	-0.04592142
55	0xbb18d810	-0.0023322143
56	0x3ccafe76	0.02477954
57	0x3c849b1b	0.016187241
58	0x3c784836	0.015153935
59	0x3bbda66c	0.0057876613
60	0x3de42db8	0.11141533
61	0xbe49a1fb	-0.19690697
62	0xbe0a5dba	-0.13512316
63	0x3e4a23e6	0.19740257
64	0x3a66de7a	0.00088069553
65	0x3de7ab17	0.1131193
66	0x3d643a37	0.05571958
67	0x3ec56898	0.3855636
68	0xbb7e59fe	-0.0038810964
69	0x3d4c1a63	0.04982985
70	0x3ea0d8a5	0.31415287
71	0xbe14f0de	-0.14545009
72	0xbe4265f4	-0.18984205
73	0x3c954317	0.018220467
74	0xbd972f42	-0.073820606
75	0xbe77b9da	-0.2419199
76	0x3e7ca709	0.24673094
77	0xbe243b87	-0.16038333
78	0xbea032b0	-0.31288671
79	0xbc6a11e8	-0.014286496
80	0xbdcbf4e8	-0.099588215
81	0x3dd991c8	0.10623509
82	0xbdaa84a7	-0.08326083
83	0x3e8123b3	0.2522255
84	0x3d4dde66	0.050260924
85	0xbd4a8d13	-0.049450945
86	0xbe75e4f7	-0.24013124
87	0x3e3271b7	0.17426191
88	0x3e6760a1	0.22595455
89	0x3e58f00f	0.21185325
90	0xbe45ce41	-0.19316961
91	0x3e782b82	0.24235347
92	0xbd2d9a88	-0.0423837
93	0xbe10566e	-0.1409547
94	0xbf2a2ab4	-0.6647141
95	0xbdf079b5	-0.11741964
96	0xbe2629e3	-0.16226916
97	0x3eb11eeb	0.345939
98	0xbb28766b	-0.0025705348
99	0xbd993c1b	-0.07482167
100	0x3d981a6b	0.07426914
101	0x3cd26468	0.025682643
102	0xbda36c57	-0.079796486
103	0xbd9be930	-0.07612836
104	0xbc9c610d	-0.019089246
105	0xbb2a4581	-0.002598137
106	0xbe8acdb0	-0.27110052
107	0xbe9f4d78	-0.3111379
108	0xbdf2fa6e	-0.11864172
109	0xbe6702ba	-0.22559634
110	0xbe066664	-0.13124996
111	0x3d9723b1	0.073798545
112	0x3c608983	0.01370466
113	0x3aaebcb4	0.0013331384
114	0xbd57e0d9	-0.052704666
115	0x3de8eff2	0.11373891
116	0x3e5e849a	0.21730271
117	0xbd054cde	-0.03254401
118	0x3caf3a37	0.021390064
119	0xbe5a3210	-0.2130816
120	0xbe7e5f04	-0.24840933
121	0x39f707db	0.00047117364
122	0x3da34419	0.07971973
123	0x3d7c656c	0.06162016
124	0x3e1b465a	0.15163556
125	0x3dbb5c41	0.091484554
126	0xbd89095b	-0.066912375
127	0xbf0388f6	-0.5138086
128	0xbcb34b8b	-0.021886608
129	0xbcc52575	-0.024065712
130	0x3e08d190	0.13361192
131	0xbdb6f0bb	-0.089326344
132	0xbebbf291	-0.367085
133	0xbcbcea67	-0.02306099
134	0xbde312d7	-0.11087578
135	0x3d94d7bb	0.0726771
136	0x3bf5f9a2	0.007506565
137	0xbeed0d7c	-0.4629935
138	0xbe563bf1	-0.20921303
139	0x3d7b584e	0.06136351
140	0xbe5f0d2e	-0.21782371
141	0xbd167f3c	-0.036742434
142	0x3d59b415	0.053150255
143	0x3db12c65	0.08651046
144	0xbd97279b	-0.07380601
145	0xbed6d945	-0.41962638
146	0xbdaf3292	-0.085545674
147	0x3ccca8ff	0.024982927
148	0x3e153930	0.14572597
149	0xbc885ccb	-0.01664581
150	0x3d234df8	0.03986928
151	0x3f140a6c	0.578284
152	0x3d92c198	0.07165831
153	0x3daddf8c	0.08489904
154	0x3c1fe6eb	0.009759645
155	0xbe27c55e	-0.16383883
156	0x3e541abf	0.20713328
157	0x3e2bf1a3	0.16791396
158	0x3c023385	0.0079468535
159	0xbca6e617	-0.020373387
160	0x3e4d0b76	0.20023903
161	0x3ca39bec	0.01997181
162	0xbe099bf8	-0.13438404
163	0x3e0067bb	0.1253957
164	0x3e39baa3	0.18137603
165	0x3e90050e	0.28128856
166	0xbdc3b71c	-0.0955641
167	0x3e8a9969	0.27070168
168	0xbcea8b47	-0.028630866
169	0x3d462eb0	0.04838437
170	0x3e2cf989	0.16892065
171	0x3e2d3c58	0.1691755
172	0x3dba051c	0.09083006
173	0x3d9126fd	0.070875145
174	0xbe0d71df	-0.1381297
175	0xbeb1a9ed	-0.34699956
176	0x3e80f5ea	0.25187618
177	0x3e0159a5	0.12631853
178	0x3ccc4625	0.024935791
179	0xbe522bba	-0.20524493
180	0xbd773c2e	-0.060360126
181	0x3e17490a	0.14773956
182	0xbe175fe9	-0.1478268
183	0x3d5982b1	0.053103153
184	0x3b8eaab2	0.0043538446
185	0x3e0d9e7d	0.1382999
186	0xbed20190	-0.41016817
187	0x3d9c4346	0.07630019
188	0xbe3ab4b2	-0.18232992
189	0x3d93b2df	0.07211851
190	0xbdf11c41	-0.11772967
191	0x3d9a648d	0.0753871
192	0x3db885f1	0.09009922
193	0x3d4f71c3	0.0506456
194	0x3c345500	0.011006594
195	0x3d449a77	0.04799887
196	0x3cca6aba	0.024709094
197	0xbe3cc28c	-0.18433589
198	0x3df92cac	0.121667236
199	0x3d87859e	0.06617282
200	0xbc61cc84	-0.0137816705
201	0xbdb03552	-0.0860392
202	0xbe8bc8c2	-0.27301604
203	0xbe58365c	-0.21114486
204	0xbd46b202	-0.048509605
205	0xbeb37be3	-0.35055456
206	0xbded16af	-0.11576592
207	0xbf0ae6a3	-0.54258174
208	0xbd676cc1	-0.0565002
209	0xbe0e1127	-0.1387373
210	0x3e204bdb	0.15653937
211	0x3c8876a9	0.016658144
212	0x3dc2f8d6	0.09520118
213	0x3d61ecab	0.055157345
214	0x3e03b8c4	0.12863451
215	0x3da695c1	0.08134032
216	0x3e019054	0.12652713
217	0xbd05e4b9	-0.03268883
218	0xbdd6dc4c	-0.10491237
219	0xbc96ffcb	-0.018432518
220	0x3d989a5c	0.07451317
221	0xbd9b2a88	-0.075764716
222	0xbdd94115	-0.106081165
223	0x3dada38e	0.08478461
224	0xbe230f9d	-0.15923925
225	0xbc9c32f1	-0.01906726
226	0x3dd32d0b	0.10311326
227	0xbf0e8b72	-0.55681527
228	0xbf10bc58	-0.5653739
229	0x3e1fcd7a	0.15605727
230	0x3da367d4	0.07978788
231	0xbddc1bba	-0.10747476
232	0x3e13026b	0.14356391
233	0x3d8cb982	0.0687132
234	0xbc2b7fd9	-0.010467493
235	0xbdfa67b7	-0.12226813
236	0xbd80cc8f	-0.062890165
237	0xbc3401cf	-0.010986759
238	0xbde486bd	-0.11158512
239	0xbd95ab52	-0.073080674
240	0xbeb33bff	-0.3500671
241	0xbd476209	-0.048677478
242	0x3df9ff1f	0.122068636
243	0x3d51e4e8	0.051243693
244	0x3e1fce9c	0.15606159
245	0x3e0eec79	0.13957395
246	0xbd3cd145	-0.046098012
247	0xbed7346b	-0.4203218
248	0xbdca6d7a	-0.09884162
249	0x3cd1e1b3	0.025620317
250	0x3d143402	0.03618241
251	0x3ccd5afa	0.025067795
252	0x3e15196c	0.14560479
253	0x3dd9f1c1	0.10641814
254	0x3d53f259	0.051744793
255	0xbe08e27b	-0.13367645

decoder.2.bias f4 [8]
0	0xbb346596	-0.002752637
1	0x3d46b5ce	0.048513226
2	0x3e3b33bb	0.18281452
3	0x3e0a1452	0.13484314
4	0xbd08a3be	-0.03335928
5	0x3e09b70b	0.13448732
6	0xbc296e82	-0.0103412885
7	0x3daa0b3b	0.08302923
