model_params2.pth (torch, 12743 bytes, 5 tensors)

fc1.weight f4 [64, 7]
5.6167006 -6.8979993 -4.2237153 -1.2779552 -2.257583 -1.8603903 9.584823 5.483586
5.112704 0.57348764 -0.35368472 -7.848615 6.614939 -0.52600694 8.500324 -1.304638
0.81515354 7.2438455 -4.8748918 0.20166709 -0.34577012 -3.655225 9.573363 -2.9533427
-2.0256674 -1.3374087 2.7206752 -1.9114664 -0.5586553 -4.4746943 9.004591 7.9808655
-3.960582 2.5045476 -1.355778 -0.8845401 -5.7282763 4.630305 4.4531054 -2.6434968
-0.5587808 -2.656227 0.052034173 -4.9204626 -1.6983849 -3.1727087 -1.274778 4.6528244
-1.2766526 -0.97940123 -0.4582391 4.621365 -7.860589 1.4902202 -5.349137 -3.1753442
-0.7633955 -1.8957494 9.326419 10.389712 -5.861618 -2.6703913 -6.5103188 0.6349749
-4.284146 -2.5746686 7.5594683 -6.6518755 -0.078693174 7.7583413 -2.5101933 3.2706542
-2.1931603 -2.6983159 3.428772 2.932156 -3.79235 -2.8605525 -5.660961 2.9725964
-4.6595526 5.866532 -4.7131805 6.211053 3.571646 -0.34130368 3.9100661 1.6933492
-0.59296364 -2.703592 -12.663784 -3.541396 2.531985 -2.1737316 -1.0340792 -0.31661993
-3.05885 3.3772047 -1.9988374 5.39475 0.17688781 3.9726064 2.6070943 0.37072554
4.8354225 3.373887 -3.2099 -1.8831614 -1.3960927 -4.09589 0.6122424 -2.671437
-1.5688118 3.5614958 -1.5605639 1.6275043 0.4123794 -2.3984704 -2.6582642 -10.59384
-0.0001324935 0.17336845 -3.4252057 -0.26494247 -2.9359324 4.4879937 -3.4417102 8.923583
-0.030337026 3.4274278 -0.018424142 -1.8906218 0.58758825 -0.3498075 1.6874695 1.7698836
8.21584 -1.1679066 -2.3426464 4.3109765 -2.0355337 -1.2012979 -4.4830084 8.268399
-3.373338 -1.4009782 -3.6607797 3.0382164 5.8434863 -5.743797 10.949676 -1.354917
4.098054 -5.1532097 3.4229856 -0.40819758 -2.7165413 2.17955 -11.262766 -0.3059025
4.076795 -2.6929328 -3.515451 -2.9949982 5.3423862 5.080695 2.416425 0.02393796
-1.2819167 0.7738033 -6.024039 -0.26031393 -2.793188 6.7897997 -5.0855136 4.063157
3.310353 -3.9873242 1.197427 0.727138 -2.396907 6.0683656 -1.356844 1.6199834
0.25884098 12.075049 3.823244 -0.43006918 -0.37221375 3.203623 0.42934367 4.310674
4.6413717 6.069937 -0.8043316 -0.33801112 -3.2107658 -0.4330575 -10.436365 -2.262313
-4.776066 -8.36028 -1.3888439 4.6821365 -0.54077214 0.099945895 4.2654734 0.41339386
4.989363 -1.0708116 -0.61692363 1.636576 1.4937918 1.7984627 -3.3251443 -0.3866942
4.8338556 -0.23124067 4.3999696 0.37558174 5.2612305 -6.0331206 1.1754901 3.9978619
0.12498703 -0.19833446 -0.34417847 -0.0366419 0.072538994 0.2925105 0.007382775 2.2342217
-3.6676455 -0.9617805 3.7888956 0.83235234 -6.655638 2.9819906 1.0352877 -2.6689725
0.37888226 0.37397495 -0.12312336 1.304282 -1.618412 -0.25999057 0.2219056 0.08392043
-0.29500693 -0.32443488 -0.3449661 -0.25357053 -2.792391 -6.523273 0.023205616 -3.238473
00000000: 03bc b340 69bc dcc0 ad28 87c0 0994 a3bf
00000010: 3d7c 10c0 4521 eebf 6f5b 1941 8979 af40
00000020: 459b a340 16d0 123f 2a16 b5be db27 fbc0
00000030: 95ad d340 64a8 06bf 5401 0841 61fe a6bf
00000040: e7ad 503f 95cd e740 1dff 9bc0 d181 4e3e
00000050: c808 b1be 35ef 69c0 7f2c 1941 9103 3dc0
00000060: 89a4 01c0 3530 abbf 8b1f 2e40 eeaa f4bf
00000070: 0904 0fbf b230 8fc0 ce12 1041 4063 ff40
00000080: 2d7a 7dc0 824a 2040 228a adbf 3871 62bf
00000090: 0a4e b7c0 752b 9440 d77f 8e40 0d2f 29c0
000000a0: 420c 0fbf a0ff 29c0 c921 553d 6e74 9dc0
000000b0: ad64 d9bf a90d 4bc0 ed2b a3bf f0e3 9440
000000c0: 5a69 a3bf 0aba 7abf 519e eabe 39e2 9340
000000d0: f289 fbc0 89bf be3f 212c abc0 d738 4bc0
000000e0: e36d 43bf eba7 f2bf 0339 1541 433c 2641
000000f0: 6092 bbc0 b1e7 2ac0 8854 d0c0 b78d 223f
00000100: b917 89c0 5fc7 24c0 2ae7 f140 2adc d4c0
00000110: e329 a1bd 5544 f840 02a7 20c0 6652 5140
00000120: bd5c 0cc0 35b1 2cc0 0071 5b40 72a8 3b40
00000130: ddb5 72c0 4b13 37c0 9826 b5c0 053f 3e40
00000140: 0e1b 95c0 a1ba bb40 60d2 96c0 f2c0 c640
00000150: d995 6440 5bbf aebe 863e 7a40 abbf d83f
00000160: 77cc 17bf a707 2dc0 dc9e 4ac1 3ba6 62c0
00000170: 0b0c 2240 6b1e 0bc0 b55c 84bf 021c a2be
00000180: 33c4 43c0 1f24 5840 e7d9 ffbf cba1 ac40
00000190: 1422 353e 2f3f 7e40 a2da 2640 bdcf bd3e
000001a0: c8bb 9a40 c4ed 5740 006f 4dc0 6f0b f1bf
000001b0: 2ab3 b2bf 8811 83c0 ebbb 1c3f d3f8 2ac0
000001c0: d3ce c8bf 8cef 6340 8fc0 c7bf 1052 d03f
000001d0: 6523 d33e 8a80 19c0 0021 2ac0 5e80 29c1
000001e0: f4ed 0ab9 8087 313e 9236 5bc0 8aa6 87be
000001f0: 51e6 3bc0 a59d 8f40 fb44 5cc0 ffc6 0e41
00000200: 5b85 f8bc fa5a 5b40 3aee 96bc e5ff f1bf
00000210: 2f6c 163f f819 b3be 00ff d73f 8c8b e23f
00000220: 1574 0341 f77d 95bf ebed 15c0 85f3 8940
00000230: 2f46 02c0 21c4 99bf ce74 8fc0 5d4b 0441
00000240: c5e4 57c0 4153 b3bf 374a 6ac0 2372 4240
00000250: d7fd ba40 2fcd b7c0 df31 2f41 ec6d adbf
00000260: 4223 8340 18e7 a4c0 3212 5b40 46ff d0be
00000270: d0db 2dc0 bf7d 0b40 4a34 34c1 419f 9cbe
00000280: 1b75 8240 0359 2cc0 26fd 60c0 0dae 3fc0
00000290: d4f4 aa40 0e95 a240 b5a6 1a40 8a19 c43c
000002a0: d915 a4bf f917 463f edc4 c0c0 de47 85be
000002b0: 98c3 32c0 0a46 d940 87bc a2c0 6205 8240
000002c0: d3dc 5340 5230 7fc0 4a45 993f b725 3a3f
000002d0: ed66 19c0 0d30 c240 10ad adbf 9e5b cf3f
000002e0: ce86 843e 6733 4141 08b0 7440 0732 dcbe
000002f0: cd92 bebe 2908 4d40 efd2 db3e 0bf1 8940
00000300: 1e86 9440 ed3c c240 ade8 4dbf cb0f adbe
00000310: 307d 4dc0 b6b9 ddbe 5afb 26c1 bcc9 10c0
00000320: 88d5 98c0 b5c3 05c1 a3c5 b1bf 10d4 9540
00000330: 0b70 0abf 6fb0 cc3d c27e 8840 5ca8 d33e
00000340: dda8 9f40 5b10 89bf b5ee 1dbf 537b d13f
00000350: 9234 bf3f 0734 e63f 2acf 54c0 c8fc c5be
00000360: f2ae 9a40 5bca 6cbe 8dcc 8c40 404c c03e
00000370: 005c a840 530f c1c0 7676 963f f8dc 7f40
00000380: 33f9 ff3d 3018 4bbe 2938 b0be d115 16bd
00000390: 538f 943d f0c3 953e 35eb f13b 7dfd 0e40
000003a0: b4ba 6ac0 3f37 76bf 447d 7240 0b15 553f
000003b0: fdfa d4c0 efd8 3e40 4f84 843f 72d0 2ac0
000003c0: dbfc c13e a579 bf3e 1a28 fcbd b6f2 a63f
000003d0: 2028 cfbf 7c1d 85be 393b 633e 79de ab3d
000003e0: 260b 97be 541c a6be 669f b0be ffd3 81be
000003f0: 89b6 32c0 a7be d0c0 b419 be3c 2443 4fc0

fc1.bias f4 [64]
-4.47377 -8.442277 -11.691812 0.38574642 -9.580377 -2.6420298 2.2494383 0.31626686
-10.030881 -7.873123 2.2166336 -3.967163 -2.8794966 -0.28612584 -9.941139 4.043642
-1.4657868 1.5216279 -6.2033377 -10.075993 1.4232408 -7.973222 -2.8785737 -2.6748157
3.6346834 -6.018215 -10.610129 -12.031374 12.959174 -8.58787 -5.6247272 -9.527958
-0.3441105 -2.6093068 -0.47340384 -0.091312766 3.3110178 -7.1168466 -0.8960769 -0.826272
-0.3989399 -0.28479785 0.37804115 -2.3296852 -7.119517 -9.81567 -0.53165936 -4.3429074
-3.773829 3.0718868 -1.0192059 -9.191232 -0.9020582 -0.06680396 -6.5880003 -11.02933
-8.326336 -1.4174976 -6.336556 2.3241267 -11.352818 2.5886297 -0.2929555 -0.39396054
00000000: 2029 8fc0 9113 07c1 a911 3bc1 8e80 c53e
00000010: 3949 19c1 0417 29c0 ccf6 0f40 bbed a13e
00000020: 7d7e 20c1 a0f0 fbc0 53dd 0d40 00e6 7dc0
00000030: ac49 38c0 167f 92be e80e 1fc1 8465 8140
00000040: e79e bbbf b4c4 c23f be81 c6c0 4437 21c1
00000050: c12c b63f a224 ffc0 8d3a 38c0 2e30 2bc0
00000060: a79e 6840 3895 c0c0 17c3 29c1 8280 40c1
00000070: c758 4f41 ea67 09c1 c4fd b3c0 8472 18c1
00000080: 402f b0be e2fe 26c0 fd61 f2be 3002 bbbd
00000090: b7e7 5340 35bd e3c0 4c65 65bf 9086 53bf
000000a0: da41 ccbe 06d1 91be 9c8e c13e 9019 15c0
000000b0: 15d3 e3c0 fc0c 1dc1 d41a 08bf 19f9 8ac0
000000c0: 6a86 71c0 cb99 4440 5775 82bf 490f 13c1
000000d0: 49ed 66bf 84d0 88bd e6d0 d2c0 2378 30c1
000000e0: ac38 05c1 9070 b5bf 11c5 cac0 7ebe 1440
000000f0: 24a5 35c1 1cac 2540 43fe 95be 32b5 c9be

fc2.weight f4 [32, 64]
1.1180042 -1.904772 0.77335393 -0.71113104 -0.24399392 -1.2711703 -0.07382174 -0.02613051
-0.8165471 0.4721151 -2.6762471 -0.91551065 -0.050104633 -0.056478154 0.062489584 -1.1254948
1.3315566 -1.4505777 3.2149472 2.699786 0.1215149 -2.4239614 0.404 -1.5724609
-0.39706972 0.7586439 1.6353217 -1.7297835 -1.0050714 -0.9064769 -0.6567585 -1.6899933
0.081108585 0.51463306 -0.11186427 0.08995613 -0.116981946 -0.5921428 -0.98836756 -0.5290865
-0.10679093 -0.0035555959 0.05475296 -1.6434689 -1.9270277 -1.4447502 -1.1353257 -0.0648866
-0.859631 -1.5391957 -0.04086483 -1.2995962 -0.23571725 0.33810422 1.2533269 0.9077729
-0.42812386 -4.695068 0.025938675 0.27767596 0.50731015 -2.0349677 -0.08525883 0.024837807
-0.097482845 -2.3719494 -1.1579342 -0.3519421 -1.4213684 -0.9099844 0.0433446 -1.1039386
-2.1909661 0.014997017 -0.2565367 -2.8727546 5.5003343 -0.81933403 2.4767249 -1.6248552
0.60023814 -0.0071891164 0.22338994 -0.5183365 0.04370529 0.06486303 -0.07635039 -2.7203693
1.8375738 -2.127119 2.8173501 1.2430183 -6.032035 -1.7700938 0.42641264 -1.5861918
-0.11571941 -0.32559657 -0.53975064 0.015917523 -2.9406588 -0.27713138 0.8823015 -1.9545572
0.06441896 -0.06593515 -0.49753097 -0.65505093 -1.3094767 1.775985 1.2867842 -1.352839
0.04859261 0.32632816 0.3103378 -0.5578335 -0.49373612 0.06520533 -0.5667544 -3.773666
1.3860292 0.6205286 1.4538461 -1.3024229 0.5836744 -1.3338535 0.019033879 0.04084775
-0.45126915 -1.7436337 -1.7151915 -1.8664018 -2.189472 -0.8728435 -1.0438874 -0.95048094
-4.0121264 1.0334946 0.9936999 1.0293646 2.7974107 0.25493708 -0.495148 1.7534817
-1.0866561 -1.023163 0.51665646 -0.08697663 0.0011452492 -1.6080325 -2.7712104 -0.7933456
-0.06027791 0.11621711 -2.7131371 -1.7884803 0.914611 2.4466283 -0.7776567 -0.91866535
-0.052399635 -2.2622945 0.302841 -0.018690089 -0.66905487 -0.0864958 -1.5963385 1.0050044
-0.10849166 0.012438133 -2.6614373 -1.1132867 0.33906102 0.84891695 -0.20982797 1.0175302
0.93881947 -0.78938085 1.3366662 -2.2635865 -0.41136244 1.2181247 1.3410158 1.9273473
-2.1087852 0.24750647 -0.23722295 -0.86019784 -6.341062 1.3211232 0.069075 0.015148697
2.265545 1.0817856 -0.006024056 0.76872724 0.11919985 0.059303936 -0.93204224 1.3284379
2.2852843 -0.31223986 -1.9446801 3.3541334 0.7261063 -1.2028273 0.075221285 -1.0697097
1.4831585 1.7787974 -0.1373894 2.6049936 -1.9889975 -0.46262684 2.419061 0.020252261
-2.0574665 -0.5895503 -1.174492 -0.4142881 -4.1424894 -1.5088347 -0.32484993 -0.5024352
-0.048030637 0.014814136 -0.30957866 -0.03303672 -2.0147057 -0.36447123 1.8501276 -1.2336705
-0.04488031 0.051715136 0.21637362 -0.52286905 0.39808592 -0.9479172 -0.91899836 -2.097478
-1.0563247 -0.47239098 -0.2767122 -2.5457988 -0.5009893 -0.33598125 -2.745493 -0.38923055
-0.9041593 -0.83733404 0.344712 -0.23568828 -2.6437829 -2.2716925 -0.08296706 -0.0313629
00000000: c31a 8f3f 92cf f3bf 86fa 453f af0c 36bf
00000010: 8bd9 79be b5b5 a2bf da2f 97bd a70f d6bc
00000020: 3b09 51bf 12b9 f13e a247 2bc0 e85e 6abf
00000030: 843a 4dbd a355 67bd 14f5 7f3d 3710 90bf
00000040: 7270 aa3f 88ac b9bf b2c1 4d40 4bc9 2c40
00000050: cedc f83d 2f22 1bc0 17d9 ce3e 6646 c9bf
00000060: b94c cbbe 7d36 423f 3952 d13f 8c69 ddbf
00000070: 2ea6 80bf df0e 68bf 5321 28bf b351 d8bf
00000080: 421c a63d febe 033f 1819 e5bd eb3a b83d
00000090: 3b94 efbd ac96 17bf a805 7dbf 3672 07bf
000000a0: 34b5 dabd 0005 69bb a444 603d 305d d2bf
000000b0: d8a8 f6bf 93ed b8bf 5a52 91bf 44e3 84bd
000000c0: c710 5cbf 5d04 c5bf e161 27bd 2b59 a6bf
000000d0: dd5f 71be ff1b ad3e 046d a03f ce63 683f
000000e0: 0d33 dbbe ff3d 96c0 587d d43c 8b2b 8e3e
000000f0: 14df 013f e93c 02c0 2e9c aebd a878 cb3c
00000100: 16a5 c7bd 05ce 17c0 3037 94bf c131 b4be
00000110: 66ef b5bf bdf4 68bf 1b8a 313d dc4d 8dbf
00000120: ca38 0cc0 0cb6 753c c758 83be 36db 37c0
00000130: bd02 b040 e0bf 51bf a982 1e40 41fb cfbf
00000140: 35a9 193f ae92 ebbb 55c0 643e b3b1 04bf
00000150: 5104 333d e9d6 843d 985d 9cbd 881a 2ec0
00000160: 9e35 eb3f b822 08c0 774f 3440 391b 9f3f
00000170: 6e06 c1c0 6f92 e2bf c252 da3e 5508 cbbf
00000180: 4cfe ecbd 98b4 a6be 192d 0abf 7765 823c
00000190: c133 3cc0 2ae4 8dbe 83de 613f ee2e fabf
000001a0: 16ee 833d 0209 87bd 61bc febe 6bb1 27bf
000001b0: ef9c a7bf 7a53 e33f 58b5 a43f d429 adbf
000001c0: 0b09 473d 7c14 a73e 99e4 9e3e 2dce 0ebf
000001d0: fbca fcbe 5f8a 853d d116 11bf be83 71c0
000001e0: 6869 b13f f6da 1e3f a117 ba3f cbb5 a6bf
000001f0: af6b 153f b6bb aabf f0ec 9b3c f84f 273d
00000200: c00c e7be 642f dfbf 658b dbbf 41e6 eebf
00000210: 4f20 0cc0 ac72 5fbf 1a9e 85bf b852 73bf
00000220: 5763 80c0 8d49 843f 1e63 7e3f 38c2 833f
00000230: c708 3340 1d87 823e 0a84 fdbe 1772 e03f
00000240: 8c17 8bbf 01f7 82bf 9943 043f ce20 b2bd
00000250: 301c 963a 02d4 cdbf 835b 31c0 b218 4bbf
00000260: f8e5 76bd 3c03 ee3d 0aa4 2dc0 ecec e4bf
00000270: f223 6a3f 8f95 1c40 8214 47bf a72d 6bbf
00000280: 00a1 56bd 6fc9 10c0 fa0d 9b3e f51b 99bc
00000290: 2e47 2bbf b624 b1bd d254 ccbf fca3 803f
000002a0: e030 debd 50c9 4b3c fd54 2ac0 2e80 8ebf
000002b0: 6899 ad3e 9f52 593f 25dd 56be 6e3e 823f
000002c0: 7956 703f dd14 4abf e117 ab3f 9ade 10c0
000002d0: 199e d2be 83eb 9b3f 68a6 ab3f 51b3 f63f
000002e0: 56f6 06c0 5672 7d3e 93ea 72be ed35 5cbf
000002f0: fbe9 cac0 911a a93f 3277 8d3d 3e32 783c
00000300: b0fe 1040 f377 8a3f 7265 c5bb 4fcb 443f
00000310: 0d1f f43d afe8 723d 529a 6ebf 410a aa3f
00000320: 1942 1240 e7dd 9fbe 47eb f8bf 1faa 5640
00000330: 1ae2 393f 3ff6 99bf 9e0d 9a3d 3fec 88bf
00000340: 23d8 bd3f a2af e33f cfaf 0cbe 37b8 2640
00000350: 7897 febf 6ddd ecbe e5d1 1a40 12e8 a53c
00000360: 88ad 03c0 c5ec 16bf c155 96bf 921d d4be
00000370: 468f 84c0 7f21 c1bf bb52 a6be 989f 00bf
00000380: c6bb 44bd fdb6 723c 1881 9ebe 8351 07bd
00000390: f0f0 00c0 f99b babe fbd0 ec3f eae8 9dbf
000003a0: 6ad4 37bd 40d3 533d 0c91 5d3e bfda 05bf
000003b0: ebd1 cb3e b4aa 72bf 7a43 6bbf 143d 06c0
000003c0: a635 87bf 3bdd f1be 39ad 8dbe 5eee 22c0
000003d0: d640 00bf bc05 acbe 28b6 2fc0 3a49 c7be
000003e0: fc76 67bf 865b 56bf 177e b03e 4558 71be
000003f0: bd33 29c0 6963 11c0 a2ea a9bd 6276 00bd

fc2.bias f4 [32]
-3.0621722 -2.2727883 0.62547255 5.2078595 0.11448173 -1.9247847 -0.5028815 1.5114715
-0.6739065 -5.4029794 5.178362 0.91885936 0.48051825 -4.004028 1.3554008 4.275144
-0.8092827 -3.7210279 3.7129443 -2.1517725 1.4807254 2.3967621 0.18890186 -0.21263562
-4.082917 1.1434598 -3.0572896 -7.988001 -2.3170521 -4.7148604 3.0685904 -0.89698994
00000000: a1fa 43c0 5d75 11c0 f81e 203f c9a6 a640
00000010: 6675 ea3d 585f f6bf d8bc 00bf e677 c13f
00000020: 2385 2cbf 35e5 acc0 24b5 a540 5e3a 6b3f
00000030: 7d06 f63e ff20 80c0 c67d ad3f fbcd 8840
00000040: 272d 4fbf 5225 6ec0 e1a0 6d40 a4b6 09c0
00000050: 6988 bd3f 8d64 1940 7d6f 413e 27bd 59be
00000060: 42a7 82c0 e45c 923f a2aa 43c0 b49d ffc0
00000070: 954a 14c0 23e0 96c0 c963 4440 22a1 65bf

fc3.weight f4 [1, 32]
-1.9341656 -2.5219245 -1.2112077 1.7296591 1.186499 1.3528535 -2.069323 -1.4923365
1.8757411 1.9128807 -1.9385936 1.9804949 1.5240897 1.8808167 -1.1535782 -1.7418244
1.5048188 1.4917393 1.4030509 1.933189 -2.453629 1.4278147 2.1842327 3.9178183
-1.6220242 1.8064334 -1.2504277 -2.114303 1.3540125 -2.4366984 1.504272 1.6764762
00000000: bd92 f7bf 3667 21c0 db08 9bbf 7865 dd3f
00000010: 33df 973f 4e2a ad3f ca6f 04c0 e204 bfbf
00000020: 4918 f03f 46d9 f43f d623 f8bf db80 fd3f
00000030: 5f15 c33f 9abe f03f 73a8 93bf 1af4 debf
00000040: e79d c03f 50f1 be3f 2c97 b33f bd72 f73f
00000050: 4208 1dc0 a2c2 b63f 78ca 0b40 89bd 7a40
00000060: 7d9e cfbf 3639 e73f 040e a0bf be50 07c0
00000070: 4850 ad3f def2 1bc0 fc8b c03f c696 d63f
