model_params.pth (torch, 12735 bytes, 5 tensors)

fc1.weight f4 [64, 7]
0	0x3dc6eae8	0.097127736
1	0x3ebd0b22	0.36922556
2	0x3d641e65	0.05569305
3	0x3e754ed9	0.23955859
4	0xbe9f82bd	-0.31154433
5	0x3c8e7b9b	0.017392924
6	0xbe833d1d	-0.25632563
7	0x3ea2436a	0.31692058
8	0xbeac590d	-0.3366169
9	0x3e70ebc9	0.23527445
10	0x3ebd2619	0.3694313
11	0xbe1aabdc	-0.15104622
12	0xbec088a5	-0.37604252
13	0xbe25c523	-0.16188483
14	0xbe35a6c2	-0.17739394
15	0x3e473309	0.19453062
16	0x3e91ee71	0.2850223
17	0x3e4eb3fb	0.20185845
18	0xbe4ddd10	-0.2010386
19	0xbeb9615f	-0.362071
20	0x3e9eae7d	0.309925
21	0xbe38e570	-0.18056273
22	0x3ebc2d2d	0.36753216
23	0x3e5a91f1	0.21344735
24	0x3ea09bd1	0.31368878
25	0x3ebb0f5d	0.3653516
26	0xbe620105	-0.22070701
27	0xbeae3840	-0.3402729
28	0xbd06e2f8	-0.032931298
29	0xbe7659cb	-0.24057691
30	0xbd87d9e6	-0.06633358
31	0xbb03d7a3	-0.0020117543
32	0xbde0b031	-0.10971106
33	0x3e811de2	0.2521811
34	0xbdeb7741	-0.11497355
35	0xbe55f893	-0.20895605
36	0x3e286e2b	0.16448276
37	0xbe600bcf	-0.21879505
38	0xbe1931de	-0.14960429
39	0x3de71aae	0.112843856
40	0xbc0a5dff	-0.008445262
41	0x3dc7ae8e	0.097500905
42	0xbe064ceb	-0.1311528
43	0xbd280fe5	-0.041030783
44	0x3ebe2401	0.37136844
45	0xbe97f717	-0.29680702
46	0x3b7b365d	0.0038331964
47	0xbe8ad78a	-0.27117568
48	0xbd225869	-0.039635096
49	0xbe7d6b12	-0.24747875
50	0xbe042602	-0.12905124
51	0xbebaf2c9	-0.36513355
52	0xbc722057	-0.014778218
53	0xbe0e49ae	-0.13895294
54	0xbe55d70d	-0.20882817
55	0x3eaa9599	0.3331726
56	0x3eabbfe0	0.33544827
57	0xbd8c5914	-0.06852928
58	0x3d3db6be	0.046316855
59	0x3dd72f67	0.10507088
60	0xbe6e3805	-0.23263557
61	0xbe6ad2e0	-0.22932005
62	0x3e9900cf	0.2988343
63	0xbcf300e4	-0.02966351
64	0xbe9e587f	-0.30926892
65	0x3e14f76b	0.14547507
66	0x3e82a497	0.25516197
67	0xbd289d5f	-0.041165706
68	0x3e3dd8a1	0.18539669
69	0x3e43a227	0.19104825
70	0xbea2a09a	-0.31763154
71	0xbcbb690b	-0.022877237
72	0x3d929e67	0.07159119
73	0xbdee9001	-0.1164856
74	0xbcf759bd	-0.030194158
75	0x3e50dd66	0.20396957
76	0x3e103c53	0.14085512
77	0xbd5cdefc	-0.053923592
78	0x3db7165b	0.08939811
79	0x3e715462	0.23567346
80	0xbe65eede	-0.22454402
81	0xbe55aeeb	-0.20867507
82	0x3ddfdd90	0.109309316
83	0x3e3a50a8	0.1819483
84	0xbe1adf9c	-0.15124363
85	0xbd8bd1da	-0.068271354
86	0x3e9135ac	0.2836126
87	0xbcceab0c	-0.025228046
88	0x3d91af27	0.07113486
89	0xbd2c8c7f	-0.042126175
90	0x3e875e0c	0.2643894
91	0x3d9cfebd	0.07665775
92	0xbe76a9d9	-0.24088229
93	0x3e7ee851	0.24893309
94	0xbd59da98	-0.053186983
95	0xbdcb1608	-0.099163115
96	0x3eb2b442	0.3490315
97	0xbd34913c	-0.04408382
98	0x3c226dc0	0.009913862
99	0x3e11ecfd	0.1425056
100	0x3da32ae0	0.07967162
101	0xbe009c86	-0.12559709
102	0xbe0cc976	-0.13748726
103	0x3d82f259	0.063938804
104	0x3eb787a3	0.3584567
105	0xbe442cbd	-0.19157691
106	0xbeb57372	-0.3543964
107	0xbd1573aa	-0.03648726
108	0xbce5aa4e	-0.02803531
109	0x3eb3ed94	0.35142195
110	0x3c83d18d	0.016091133
111	0xbd825c1d	-0.063652255
112	0x3e5e0a25	0.21683557
113	0xbe934c36	-0.28769082
114	0x3e692bcd	0.22770615
115	0xbe853124	-0.26014054
116	0xbe69f036	-0.2284554
117	0xbe2593ef	-0.16169713
118	0xbeacc849	-0.33746555
119	0xbd20c010	-0.039245665
120	0xbd0a692c	-0.033791706
121	0x3dd70379	0.10498709
122	0x3e2ff1cb	0.1718208
123	0x3d155573	0.036458444
124	0xbe942689	-0.2893565
125	0x3d955117	0.07290857
126	0xbdf9c75d	-0.12196229
127	0xbd3ce7ec	-0.046119615
128	0xbc8852f4	-0.016641118
129	0xbea75229	-0.3267987
130	0x3e94c98d	0.2906002
131	0xbe95fd42	-0.29294783
132	0xbe3a3896	-0.18185648
133	0x3e26d963	0.16293864
134	0xbe566545	-0.20937069
135	0x3e1cf08b	0.15326135
136	0x3e88c468	0.26712346
137	0xbd78f834	-0.06078358
138	0x3e9ccde8	0.30625844
139	0x3dffb91f	0.12486481
140	0x3d800445	0.06250814
141	0x3ebaa8b1	0.36456826
142	0x3dd2491e	0.10267852
143	0xbd8ed952	-0.06975044
144	0xbe506e50	-0.20354581
145	0xbe0b6d0d	-0.13615818
146	0xbe15faf0	-0.14646506
147	0xbdd525d3	-0.10407605
148	0x3d8f37ad	0.06993041
149	0xbe2d4e1a	-0.16924325
150	0x3e234825	0.1594549
151	0xbe83b67f	-0.2572517
152	0xbebca8ee	-0.36847633
153	0x3dbb9e0d	0.09161005
154	0xbe933df0	-0.28758192
155	0xbe503938	-0.20334327
156	0xbe0ee88b	-0.13955896
157	0xbeae50df	-0.34046075
158	0x3e97e88c	0.29669607
159	0x3d8b086d	0.067887165
160	0xbea87ac4	-0.32906163
161	0x3dc18450	0.09449065
162	0x3dc55666	0.0963562
163	0x3d2a0aa1	0.041514043
164	0x3e465a40	0.19370365
165	0x3ead964b	0.33903727
166	0xbe01616f	-0.12634824
167	0x3e3b9e56	0.18322119
168	0x3e51bdcd	0.2048256
169	0x3d68706b	0.056747835
170	0xbdff4d4a	-0.124659136
171	0x3dd34e37	0.10317653
172	0xbebf74d4	-0.3739382
173	0xbdbfd08f	-0.09365951
174	0xbdeadb77	-0.11467641
175	0x3e9d3e6d	0.3071169
176	0xbd8f48eb	-0.0699633
177	0x3e95f04c	0.29284894
178	0x3db65858	0.08903569
179	0xbe45c524	-0.19313484
180	0x3e837d6f	0.25681636
181	0x3dd2699f	0.10274052
182	0xbe87fadf	-0.26558587
183	0xbe88cabd	-0.26717177
184	0xbe391925	-0.18075998
185	0xbba70d40	-0.005098015
186	0xbeb4e161	-0.353282
187	0xbda67dbc	-0.08129451
188	0xbdbb69ac	-0.09151015
189	0xbd70c328	-0.058779866
190	0x3eb3ea93	0.35139903
191	0x3e1ff53e	0.15620896
192	0xbe616727	-0.22012006
193	0xbe8f4c00	-0.2798767
194	0xbe63f9af	-0.22263215
195	0xbd2d9115	-0.04237469
196	0xbe9a588b	-0.30145678
197	0xbea96b41	-0.3308964
198	0xbdccca90	-0.09999573
199	0x3e3b69d3	0.18302087
200	0x3da5880f	0.08082592
201	0x3b05f16a	0.0020438083
202	0xbe330789	-0.17483343
203	0xbde8b9e5	-0.113635816
204	0xbd0015b1	-0.031270687
205	0x3e97b6a6	0.29631537
206	0x3e9b081f	0.30279633
207	0xbb6019a4	-0.003419497
208	0x3e8d2841	0.27569774
209	0xbda1ce31	-0.07900656
210	0x3e9235d9	0.28556708
211	0xbea9f42a	-0.33194095
212	0x3e71ea96	0.23624644
213	0x3e6bbdd4	0.23021632
214	0xbe1d4655	-0.15358861
215	0xbb0c60de	-0.0021420042
216	0x3d19fbc4	0.037593618
217	0xb908df45	-0.00013053145
218	0x3de2384c	0.11045894
219	0xbe0da464	-0.13832241
220	0x3d492b27	0.04911342
221	0x3e2a1dcc	0.16612929
222	0x3ea5de9c	0.323964
223	0xbdc71a04	-0.09721759
224	0x3e36ef82	0.17864802
225	0xbe9ce663	-0.3064452
226	0xbd00e530	-0.03146857
227	0xbe4150b3	-0.1887844
228	0xbe980dcd	-0.2969803
229	0xbe07ea46	-0.13272962
230	0x3d8f617f	0.07001018
231	0x3e6efe3c	0.2333917
232	0x3e448d6f	0.19194578
233	0xbe38b0c4	-0.1803618
234	0xbdc9e4d1	-0.098580964
235	0x3e1fdbaa	0.15611139
236	0x3cbe2495	0.023210803
237	0xbe80ff71	-0.25194886
238	0xbe94b228	-0.29042172
239	0x3da21e61	0.079159506
240	0xbd5eba4b	-0.05437688
241	0xbe559c6f	-0.20860456
242	0xbe88db98	-0.26730037
243	0x3e89e63e	0.26933473
244	0x3e45f45d	0.19331498
245	0x3d45cfa4	0.048293725
246	0xbe0735ff	-0.13204192
247	0x3e8a7adb	0.27046856
248	0x3d87fe01	0.06640244
249	0x3dce7c01	0.100822456
250	0xbe1cc706	-0.15310296
251	0xbe8aa536	-0.2707917
252	0xbe871822	-0.263856
253	0xbce89309	-0.028390424
254	0xbe89dac5	-0.2692472
255	0x3e2f3353	0.17109422

fc1.bias f4 [64]
0	0x3e9cff61	0.3066359
1	0xbd827309	-0.063695975
2	0x3e94eace	0.29085392
3	0xbd09918b	-0.033586066
4	0x3df30502	0.118661895
5	0xbd16df07	-0.03683379
6	0x3e985f22	0.2976008
7	0x3da9fa3e	0.08299683
8	0x3e4f0055	0.2021497
9	0x3e819dc1	0.2531567
10	0x3e82331d	0.2542962
11	0xbce25359	-0.027627634
12	0xbe60d735	-0.21957095
13	0xbdd5c3a6	-0.104377076
14	0x3d2cfc21	0.042232636
15	0x3e495c1e	0.19664046
16	0xbd91ec97	-0.07125204
17	0x3e13ef79	0.1444682
18	0xbde40323	-0.11133411
19	0xbe77ef92	-0.24212483
20	0xbe7b0468	-0.245134
21	0x3ebbc453	0.3667322
22	0x3d66948b	0.056294005
23	0x3e0ef85f	0.13961934
24	0x3e1ea99e	0.15494391
25	0x3e8ae3f1	0.2712703
26	0x3d427e20	0.047483563
27	0x3ebddbc3	0.37081727
28	0x3e2ec6f5	0.17068084
29	0xbe524743	-0.20534997
30	0xbe835547	-0.25651
31	0x3eb3edb1	0.35142282
32	0x3e572ec0	0.21013927
33	0xbea25349	-0.31704167
34	0x3eae0d8c	0.3399471
35	0xbe58e7a3	-0.21182112
36	0x3cb416eb	0.021983584
37	0x3e7f5617	0.24935184
38	0x3e17ce19	0.14824714
39	0xbe92c047	-0.2866232
40	0x3d97263b	0.07380339
41	0x3df87f54	0.12133661
42	0x3e916fc4	0.28405583
43	0xbe61f371	-0.22065522
44	0xbda167f4	-0.078811556
45	0x3e8c5ac2	0.27412993
46	0x3d9507de	0.07276891
47	0xbe144612	-0.14479855
48	0x3b95ccf6	0.0045715524
49	0xbe8706a4	-0.26372254
50	0x3dfeb2a0	0.12436414
51	0x3e98f77a	0.2987631
52	0xbeb30797	-0.34966728
53	0xbe19dcc6	-0.15025625
54	0xbe3cdd66	-0.18443832
55	0x3e5b5eca	0.21422878
56	0xbe9a0456	-0.30081433
57	0xbce1eb3e	-0.027577993
58	0x3e9114ac	0.28336084
59	0x3e1bdb7a	0.15220442
60	0x3e99aeb9	0.30016115
61	0x3ebe24b5	0.3713738
62	0x3e97592c	0.2956022
63	0x3c11ae8a	0.008891711

fc2.weight f4 [32, 64]
0	0x3dc1dc68	0.09465867
1	0xbcf5a12e	-0.029984083
2	0x3dd41003	0.103546165
3	0x3dd76971	0.10518158
4	0x3d70e9b5	0.05881663
5	0x3cf2a7be	0.029621001
6	0x3dd88519	0.10572261
7	0xbd9d807a	-0.076905206
8	0x3e0d6637	0.13808523
9	0x3c0594db	0.008153166
10	0x3d7eb49b	0.062183958
11	0x3e003b64	0.12522656
12	0x3d2d9765	0.04238071
13	0x3d80eba3	0.06294944
14	0x3d112f9e	0.035445802
15	0x3cf85dd8	0.030318186
16	0xbde7400d	-0.112915136
17	0x3d4529f4	0.048135713
18	0xbd3a7c93	-0.04552896
19	0xbdbadb3f	-0.09123849
20	0x3bd31e7d	0.0064428435
21	0xbd578e79	-0.052626107
22	0x3cdc4663	0.026889032
23	0xbdd1f284	-0.10251334
24	0xbc282e7f	-0.010264992
25	0x3dfa4502	0.122201934
26	0x3c9c2320	0.019059718
27	0x3dc6bf37	0.0970444
28	0x3b66121d	0.0035106011
29	0xbd9d885c	-0.07692024
30	0xbdb4db45	-0.08830885
31	0x3d1e78cd	0.038689423
32	0x3defa61f	0.11701607
33	0x3baf6a4c	0.0053532477
34	0xbdcc3019	-0.099701114
35	0xbdf77606	-0.12083058
36	0x3d30e033	0.043182563
37	0xbd2ad402	-0.041706093
38	0xbd52243f	-0.0513041
39	0xbc1275c6	-0.008939212
40	0x3d3f8b15	0.0467635
41	0xbb022d07	-0.0019863264
42	0xbc2b4e52	-0.010455685
43	0xbd04e731	-0.032447044
44	0x3d8ade58	0.0678069
45	0xbdb8212e	-0.089907035
46	0xbd998b2e	-0.074972495
47	0x3d8be225	0.06830243
48	0xbbad63fb	-0.0052914596
49	0xbd472b5c	-0.048625335
50	0x3daa5a38	0.08317989
51	0xbdadd61a	-0.08488102
52	0x3d7907e3	0.060798537
53	0x3c07b8eb	0.008283834
54	0x3d884ba5	0.06655053
55	0x3df594f7	0.119913034
56	0x3c0ab6a2	0.008466395
57	0x3d15b8ca	0.03655318
58	0x3dfff73a	0.124983266
59	0x3df54a9a	0.1197712
60	0x3da0a84d	0.07844601
61	0xbd2d6175	-0.04232927
62	0x3d087d44	0.033322588
63	0xbcdd08b6	-0.026981693
64	0xbda37798	-0.07981795
65	0x3bd2ef3e	0.0064372113
66	0xbc9869f9	-0.01860522
67	0x3c22b7e6	0.00993154
68	0xbd9d178d	-0.076705076
69	0xbbe36f3f	-0.006940752
70	0xbd987aad	-0.074452735
71	0xbdbecafc	-0.0931606
72	0xbc78c25d	-0.015183059
73	0x3c08bc12	0.008345621
74	0x3d842d2f	0.064539306
75	0xbd1cfb21	-0.038325433
76	0x3dc6f640	0.09714937
77	0xbdb473b6	-0.088111326
78	0x3d3c7334	0.046008304
79	0x3d3d4d95	0.046216566
80	0x3d5db948	0.054131776
81	0x3d057012	0.03257758
82	0xbdbf0d58	-0.09328717
83	0x3d2a2ffc	0.041549668
84	0x3dc1cfe6	0.094634816
85	0x3c686625	0.014184509
86	0xbd5762f0	-0.05258459
87	0x3cebfa58	0.028805897
88	0x3d07bb6a	0.033137716
89	0xbad62617	-0.0016338256
90	0xbd87b4ba	-0.06626268
91	0xbd535801	-0.0515976
92	0xbd418a40	-0.047250986
93	0x3ca71182	0.02039409
94	0xbdc50d38	-0.09621662
95	0xbdef411c	-0.116823405
96	0xbce4b1b5	-0.027916769
97	0xbd85c5f8	-0.065319
98	0xbdb101b8	-0.08642906
99	0x3d38c9c3	0.04511429
100	0x3dcba6e5	0.09943942
101	0xbdf1ba5c	-0.11803123
102	0x3d83431f	0.06409287
103	0x3d4312f4	0.047625497
104	0x3cd4c131	0.025971027
105	0x3d5d69a4	0.054055825
106	0xbd9e191a	-0.077196315
107	0x3c447610	0.011991039
108	0x3d137620	0.036001325
109	0xbd9c5333	-0.076330565
110	0x3da6b64a	0.08140238
111	0x3d8d1c38	0.06890148
112	0xbdba83dd	-0.09107182
113	0xbc479560	-0.01218161
114	0xbdd128c8	-0.102128565
115	0x3bf672fb	0.007521031
116	0x3d01c83b	0.031685095
117	0xbdefbc7a	-0.11705871
118	0x3db3be36	0.08776514
119	0xb9656f02	-0.00021880495
120	0x3c5c544c	0.013447832
121	0xbdc971c0	-0.09836149
122	0x3d3818a6	0.04494538
123	0xbd975f2e	-0.07391201
124	0x3cc05c88	0.023481622
125	0xbd14fab2	-0.036371894
126	0x3dea9ead	0.11456046
127	0xbdad7c40	-0.084709644
128	0x3d252bd3	0.040324997
129	0x3d84a0b4	0.06475964
130	0xbcc1d04f	-0.0236589
131	0x3bc443f2	0.005989545
132	0xbd67b406	-0.056568168
133	0x3da13d68	0.078730404
134	0x3ddc3ed6	0.107541725
135	0x3d0b6fec	0.034042284
136	0x3d9eba0c	0.077503294
137	0x3dc71869	0.09721453
138	0xbd35210c	-0.04422097
139	0x3d4bab90	0.04972416
140	0xbd40c76d	-0.047065187
141	0xb9ef4edb	-0.00045644384
142	0x3d494ae0	0.049143672
143	0x3c6db537	0.014508537
144	0x3de6efd7	0.112762146
145	0xbc7b50cd	-0.015339089
146	0x3de9a431	0.1140827
147	0xbbbe6a3f	-0.0058110054
148	0xbcccb341	-0.024987819
149	0x3da403f0	0.080085635
150	0x3d4c16f7	0.04982659
151	0xbdab4786	-0.083632514
152	0x3cec5236	0.028847795
153	0x3dbd6e0a	0.09249504
154	0x3d2c4140	0.042054415
155	0xbc07f15a	-0.008297289
156	0x3d44599a	0.047937013
157	0xbd39a415	-0.045322496
158	0x3bedc224	0.0072558094
159	0x3dfecb71	0.12441147
160	0xbd413d01	-0.04717732
161	0xbdf25ddc	-0.118343085
162	0xbc9d971b	-0.019237092
163	0xbd79e59b	-0.061009984
164	0xbdfec6bd	-0.1244025
165	0xbde841a7	-0.11340647
166	0xbdf05e83	-0.11736777
167	0xbca37601	-0.01995373
168	0x3d38d962	0.045129187
169	0x3d9e8061	0.0773933
170	0x3de83f1c	0.11340162
171	0x3ddd8148	0.10815674
172	0xbd89cdc4	-0.067287
173	0xbd512eeb	-0.051070135
174	0x3d837d03	0.064203285
175	0xbdc3089a	-0.09523125
176	0x3d525433	0.05134983
177	0x3dd18742	0.102308765
178	0x3da9c15f	0.08288836
179	0x3cc597df	0.02412027
180	0x3cd73b91	0.02627352
181	0xbca7c7e2	-0.020481054
182	0xbdaff2be	-0.08591221
183	0xbd97c229	-0.0741008
184	0x3dfe9298	0.12430304
185	0xbdc5490d	-0.09633074
186	0xbd6894b3	-0.056782436
187	0x3d71f5bf	0.059072252
188	0xbd69355f	-0.056935664
189	0xbd714485	-0.058903236
190	0x3de81c77	0.11333554
191	0xbd8ede1f	-0.0697596
192	0x3df5afa7	0.11996394
193	0xbb838d63	-0.0040146573
194	0xbc93dc2b	-0.01804932
195	0x3de7eadd	0.113240935
196	0x3bf539e9	0.00748371
197	0xbc59f802	-0.013303759
198	0x3dad1358	0.08450955
199	0xbde889b5	-0.113543905
200	0xbc8a1c8f	-0.01685932
201	0x3d15f647	0.03661182
202	0x3d89ca4c	0.06728038
203	0x3d368f75	0.044570405
204	0xbd6b69a2	-0.057473786
205	0x3ca95d25	0.020674298
206	0xbdae23cd	-0.08502922
207	0x3db07803	0.086166404
208	0x3dc0eaa1	0.09419752
209	0xbdab2898	-0.08357352
210	0xbc34674c	-0.011010956
211	0xbca02a6c	-0.019551478
212	0xbc31b769	-0.010846951
213	0xbae62bb2	-0.001756063
214	0xbdad216c	-0.0845364
215	0xbc45ffa7	-0.012084878
216	0x3d36f1bd	0.044664133
217	0x3db7830c	0.08960542
218	0x3b980c40	0.004640132
219	0xbdba11b0	-0.09085405
220	0x3d9a67e2	0.07539345
221	0x3bb55dd7	0.005534868
222	0x3d9043c2	0.07044174
223	0xbd9a27db	-0.07527133
224	0xbcd10ca0	-0.025518715
225	0x3d3f86b0	0.046759307
226	0x3d9acb54	0.07558313
227	0x3c35ce9c	0.011096623
228	0x3df3e041	0.119080074
229	0x3cee0611	0.029055627
230	0x3dab8a0d	0.083759405
231	0xbda68e0a	-0.081325606
232	0x3d481fbc	0.04885839
233	0xbd8b4b38	-0.06801456
234	0x3d809887	0.06279092
235	0x3d8ae534	0.06781998
236	0xbb84349e	-0.004034593
237	0xbcd50780	-0.026004553
238	0x3dd95cdc	0.10613415
239	0x3cec5163	0.028847402
240	0x3d678ac1	0.05652881
241	0xbb7bc140	-0.0038414747
242	0x3ca02888	0.019550577
243	0x3cd27b3c	0.025693528
244	0x3da03974	0.07823458
245	0x3cdb3c87	0.02676226
246	0xbd918fd3	-0.071075104
247	0x3dea6ba4	0.11446312
248	0x3d89de57	0.06731861
249	0xbce6d217	-0.02817635
250	0xba8efbfc	-0.0010908837
251	0x3dbe9a28	0.09306747
252	0x3dfd2e4d	0.12362347
253	0xb9fc6909	-0.00048143443
254	0x3dcd3366	0.10019569
255	0xbde8ef48	-0.11373764

fc2.bias f4 [32]
0	0xbc1ce49a	-0.009575987
1	0x3de02470	0.1094445
2	0x3d9af11a	0.07565518
3	0xbd67bf4c	-0.05657892
4	0x3caf0f38	0.021369562
5	0xbd9ff086	-0.07809548
6	0x3d9064c7	0.07050472
7	0xbdca39cb	-0.098743044
8	0xbc8a694a	-0.016895909
9	0xbcf8658c	-0.030321859
10	0xbdf1ab27	-0.11800223
11	0x3d92fdfe	0.071773514
12	0xbd11afe6	-0.03556814
13	0x3da28a95	0.07936589
14	0x3dc5b495	0.09653584
15	0x3d91411e	0.07092498
16	0x3dcd626d	0.10028539
17	0x3dfeaa70	0.12434852
18	0xbd27dfb1	-0.040984813
19	0x3e0ca0ec	0.13733262
20	0x3dfc7782	0.12327482
21	0xbc9103b6	-0.017701965
22	0xbb255f8a	-0.0025233948
23	0x3d96fde6	0.07372646
24	0x3d1fef86	0.039046787
25	0x3d9e1b70	0.07720077
26	0xbc709002	-0.014682772
27	0x3d6947ad	0.05695312
28	0x39d16b53	0.0003994355
29	0xbd2f85ed	-0.04285233
30	0xbb38466b	-0.0028118144
31	0x3d8b4f8a	0.0680228

fc3.weight f4 [1, 32]
0	0x3e28c253	0.16480379
1	0x3e0daf0c	0.13836306
2	0x3c82aa9f	0.0159505
3	0x3d9f4134	0.077761084
4	0xbd8e0464	-0.06934431
5	0x3dd574f5	0.104226984
6	0xbd1da9a9	-0.03849188
7	0x3e12e89e	0.14346549
8	0x3c9b4039	0.018951522
9	0xbd49d9da	-0.049280025
10	0xbe24f6d1	-0.16109778
11	0xbdc63f98	-0.09680098
12	0xbe00cbba	-0.12577716
13	0xbdcef96d	-0.10106168
14	0x3d684092	0.056702204
15	0x3d9b96f4	0.075971514
16	0x3cfdac17	0.030965848
17	0xbe180fc9	-0.14849772
18	0x3dfc4a66	0.12318878
19	0x3e58156e	0.21101925
20	0xbe17dfce	-0.14831468
21	0xbc92ff26	-0.01794393
22	0xbdff6767	-0.12470894
23	0x3e0c82bd	0.13721748
24	0x3e062b83	0.13102536
25	0x3daad8e3	0.08342149
26	0x3e295d85	0.16539581
27	0xbd6d1880	-0.057884693
28	0x3e165b82	0.14683345
29	0xbd8c704d	-0.06857357
30	0x3da98031	0.08276404
31	0x3db478dd	0.08812115
