model_params.pth (torch, 12735 bytes, 5 tensors)

fc1.weight f4 [64, 7]
-0.037366517 0.27542856 0.3076654 0.20447731 0.22164088 -0.21162684 -0.26594287 0.31968543
0.09253898 -0.3356693 -0.15886457 0.347928 -0.062241003 -0.22383863 0.14541861 -0.20003964
-0.10353443 0.16867408 -0.013978213 -0.24711174 -0.18472837 0.2575933 -0.11681191 -0.28436378
0.034263294 -0.022245482 0.23947227 -0.18478827 0.21926996 -0.012507111 0.25930735 -0.20605302
-0.15971649 -0.01809457 -0.35861236 0.29182032 0.18653317 0.36971855 -0.20225962 -0.2027035
0.33116212 -0.25943986 0.24920708 0.27087724 -0.32854658 0.24469876 0.3311097 0.0879576
0.06949761 -0.33654386 -0.11903107 -0.06522313 -0.17243533 0.027584076 -0.07493165 -0.24602874
0.2772398 -0.12223672 0.17805396 0.3087208 -0.17605247 0.06906318 0.1389756 -0.15753302
0.17166872 0.23145828 0.27747408 0.35742733 0.25644997 0.28875014 -0.14217496 -0.19924028
0.03640577 -0.31371796 0.017891109 0.30826703 0.30507767 -0.29153496 -0.23888604 0.024324799
-0.06643475 0.01191418 0.044981718 -0.28477126 -0.14826334 -0.090021566 0.07227204 -0.18414828
-0.034323607 0.1920946 0.34144485 0.3391513 -0.15999739 -0.22523676 -0.0071968203 0.21240823
0.24209048 -0.27193782 -0.123457916 -0.24666557 0.016032951 0.18044758 0.06732915 -0.26854157
0.3701323 0.39643338 -0.10714064 -0.12561797 0.3046284 0.111047715 -0.11283255 -0.043798883
0.067519106 0.23173128 -0.13838857 0.103820056 -0.062025536 0.2457876 0.15700573 -0.27083853
0.27500218 -0.29150352 0.4214495 -0.12470561 -0.3382437 0.11560987 0.3601801 -0.34193558
0.33126915 -0.2733704 -0.22685242 -0.07746105 -0.22358422 0.24869087 0.33198792 0.011796293
0.29795736 0.35009694 -0.1086412 -0.34192854 -0.2827383 -0.2470254 0.14676407 -0.3197248
-0.02810673 0.24931893 0.29017404 -0.34911948 -0.12954351 0.008516734 -0.17179969 -0.22468835
0.21441504 -0.1948551 -0.20101409 -0.32584146 0.2145963 -0.12166068 -0.028944142 0.16841996
-0.003793938 -0.027320618 -0.20463623 0.039813276 -0.33224228 -0.21921553 0.3349164 -0.20568378
0.2395485 -0.19765972 0.3755924 -0.14822595 -0.036312427 0.14063771 -0.045941588 0.2137231
-0.24376555 0.4154107 0.35248193 0.36809832 -0.039016712 0.30728117 0.0027292669 -0.014574319
0.06473741 -0.03187442 0.3182567 -0.27808052 -0.1195586 0.32154456 0.06557538 0.021705562
0.15651187 -0.28817046 0.1426776 0.2836142 -0.1445681 0.01338321 -0.29333448 0.08856356
-0.3554274 -0.21876271 0.03900212 -0.32799655 0.34739164 -0.30582657 -0.35130492 0.29095313
0.12187806 -0.20752065 -0.21742609 0.21984786 -0.28479436 0.40803468 0.23171002 0.0067010545
0.23231886 -0.32984674 -0.28593802 0.21945508 0.057216756 -0.37365723 0.22368078 0.33353525
-0.2924505 -0.12095939 0.1539144 0.07263331 0.403797 -0.33789164 -0.22914031 -0.16806039
-0.22971514 0.37361464 -0.002313782 -0.16463481 0.24932115 0.36471608 0.28484896 0.23600666
0.3342412 0.040651347 -0.10847722 -0.07470211 -0.35647082 0.0060504014 0.021452304 0.07291716
-0.21731937 -0.140829 -0.029232902 -0.02692298 0.17109245 0.37065285 0.059957318 -0.4180485
00000000: a20d 19bd f904 8d3e 5286 9d3e 8062 513e
00000010: d4f5 623e b5b4 58be aa29 88be cfad a33e
00000020: 1485 bd3d d9dc abbe 65ad 22be 9e23 b23e
00000030: 6cf0 7ebd f435 65be 9ee8 143e 31d7 4cbe
00000040: dc09 d4bd e6b8 2c3e e004 65bc dc0a 7dbe
00000050: 6f29 3dbe 45e3 833e 153b efbd 2198 91be
00000060: ab57 0c3d 283c b6bc 3838 753e 2339 3dbe
00000070: 4e88 603e a0ea 4cbc efc3 843e 90ff 52be
00000080: b88c 23be 103b 94bc 0a9c b7be 7969 953e
00000090: 8d02 3f3e c04b bd3e 251d 4fbe 8291 4fbe
000000a0: 158e a93e 4dd5 84be 2430 7f3e 6cb0 8a3e
000000b0: 4237 a8be 5092 7a3e 3687 a93e 1d23 b43d
000000c0: c354 8e3d 7a4f acbe 90c6 f3bd b493 85bd
000000d0: e392 30be 00f8 e13c c475 99bd f5ee 7bbe
000000e0: 60f2 8d3e 3f57 fabd c753 363e a710 9e3e
000000f0: 1947 34be ff70 8d3d 9f4f 0e3e 5650 21be
00000100: edc9 2f3e 6603 6d3e 1511 8e3e b700 b73e
00000110: 694d 833e 0fd7 933e 5096 11be a505 4cbe
00000120: 371e 153d a49f a0be 6090 923c 2dd5 9d3e
00000130: 2433 9c3e 1244 95be 8b9e 74be cd44 c73c
00000140: f10e 88bd b133 433c c03e 383d 8acd 91be
00000150: 58d2 17be 3a5d b8bd 5d03 943d 5e91 3cbe
00000160: e996 0cbd 72b4 443e dcd1 ae3e 3da5 ad3e
00000170: 5bd6 23be 77a4 66be 4ed3 ebbb 8b81 593e
00000180: 91e6 773e 6f3b 8bbe 81d7 fcbd e695 7cbe
00000190: 8957 833c 40c7 383e dee3 893d 487e 89be
000001a0: fb81 bd3e 51f9 ca3e 8d6c dbbd ffa1 00be
000001b0: 41f8 9b3e fc6c e33d c114 e7bd 7566 33bd
000001c0: 7547 8a3d f74a 6d3e bcb5 0dbe 9c9f d43d
000001d0: 7d0e 7ebd bfaf 7b3e 1cc6 203e 59ab 8abe
000001e0: 16cd 8c3e f33f 95be 3bc8 d73e a865 ffbd
000001f0: 472e adbe dec4 ec3d 8769 b83e 2e12 afbe
00000200: 1c9c a93e 34f7 8bbe 004c 68be e6a3 9ebd
00000210: 43f3 64be d2a8 7e3e 52fa a93e 3d45 413c
00000220: de8d 983e e83f b33e 477f debd 4211 afbe
00000230: 13c3 90be 3af4 7cbe 5249 163e f8b2 a3be
00000240: 1640 e6bc 764d 7f3e b191 943e cabf b2be
00000250: 0ea7 04be c589 0b3c 42ec 2fbe b414 66be
00000260: 9e8f 5b3e 1888 47be a3d6 4dbe b1d4 a6be
00000270: 22bf 5b3e 3c29 f9bd 441c edbc 4876 2c3e
00000280: b8a3 78bb 7dcf dfbc 298c 51be 3f13 233d
00000290: a91b aabe 097a 60be 2a7a ab3e c59e 52be
000002a0: 344c 753e 4f67 4abe a64d c03e 8bc8 17be
000002b0: 57bc 14bd 5503 103e 3f2d 3cbd 3ada 5a3e
000002c0: ad9d 79be b6b0 d43e 8378 b43e 6277 bc3e
000002d0: fdcf 1fbd f553 9d3e 80dd 323b 20c9 6ebc
000002e0: 0c95 843d c08e 02bd 8bf2 a23e 9260 8ebe
000002f0: 24db f4bd 7da1 a43e 634c 863d ddcf b13c
00000300: a644 203e 148b 93be 141a 123e e135 913e
00000310: a909 14be 4045 5b3c f02f 96be d060 b53d
00000320: 95fa b5be 5503 60be b0c0 1f3d 2aef a7be
00000330: 51dd b13e 4d95 9cbe 3dde b3be cff7 943e
00000340: 349b f93d 4b80 54be f2a4 5ebe cc1f 613e
00000350: 91d0 91be ece9 d03e 6445 6d3e 8594 db3b
00000360: ffe4 6d3e ace1 a8be 7866 92be d5b8 603e
00000370: 1e5c 6a3d 0050 bfbe 930c 653e 22c5 aa3e
00000380: 12bc 95be 8fb9 f7bd bd9b 1d3e c6c0 943d
00000390: 7bbe ce3e 2200 adbe c2a3 6abe 0618 2cbe
000003a0: 723a 6bbe 6b4a bf3e d2a2 17bb 0796 28be
000003b0: 0b4e 7f3e 11bc ba3e b9d7 913e bbab 713e
000003c0: aa21 ab3e 0782 263d 4e29 debd 6bfd 98bd
000003d0: 5883 b6be 7242 c63b bebc af3c 9855 953d
000003e0: f888 5ebe 7a35 10be d779 efbc 958d dcbc
000003f0: dc32 2f3e 36c6 bd3e ce95 753d 740a d6be

fc1.bias f4 [64]
0.21641189 -0.2365635 -0.24640465 0.30271876 -0.35524768 0.24975477 0.18955196 0.060634255
0.1089475 0.24117455 -0.20072778 0.37893242 0.1612312 0.33504975 0.16825648 -0.13898745
-0.0022824444 0.011096448 -0.23267141 -0.33531675 -0.21835011 0.02694016 0.42117184 0.20649242
-0.15964164 0.26166245 -0.3478019 0.22072561 -0.12727842 -0.27976307 -0.37520343 -0.218444
-0.09428061 -0.2856962 0.2855974 0.10055235 0.34931803 0.3502212 0.29509425 0.10736796
0.35693103 -0.28174064 0.014342182 0.058667533 0.15670478 -0.32244584 0.13901876 -0.27651367
-0.27757326 -0.27686986 0.20284832 0.30584684 0.04347655 0.16160576 -0.10657172 -0.121346354
0.08814723 0.31842613 -0.267237 -0.038445715 0.047084052 -0.18361771 -0.30508876 -0.27978143
00000000: 149b 5d3e b43d 72be 8051 7cbe f4fd 9a3e
00000010: 06e3 b5be b7bf 7f3e e919 423e a05b 783d
00000020: de1f df3d 76f6 763e 958b 4dbe 6e03 c23e
00000030: cb19 253e a48b ab3e 6d4b 2c3e ba52 0ebe
00000040: 1095 15bb e0cd 353c 6a41 6ebe a3ae abbe
00000050: 2c97 5fbe 9cb1 dc3c d6a3 d73e c072 533e
00000060: 1979 23be 9ff8 853e 1713 b2be e505 623e
00000070: 4655 02be 1b3d 8fbe aa1a c0be c9af 5fbe
00000080: 3116 c1bd c646 92be d339 923e 64ee cd3d
00000090: d0d9 b23e 3150 b33e 9816 973e bce3 db3d
000000a0: aabf b63e 4f40 90be 79fb 6a3c 5e4d 703d
000000b0: 3877 203e 9f17 a5be ef5a 0e3e 3393 8dbe
000000c0: 151e 8ebe e3c1 8dbe 78b7 4f3e f597 9c3e
000000d0: 7814 323d fb7b 253e 4642 dabd 7084 f8bd
000000e0: 8986 b43d c008 a33e 4ad3 88be 4179 1dbd
000000f0: 35db 403d 4806 3cbe 9834 9cbe 833f 8fbe

fc2.weight f4 [32, 64]
-0.068884686 0.0428247 0.03476794 -0.025783734 0.10703041 -0.04279805 -0.11348956 0.04148683
0.10820586 0.06501538 0.053823963 0.12418779 -0.10148379 -0.0016636521 0.1149473 -0.037499905
0.031861108 0.084620446 -0.025732636 -0.11657512 -0.019855514 -0.09805417 0.101757295 -0.03185922
0.015810715 0.010904198 -0.09196578 -0.056969278 -0.029970586 -0.042094976 -0.002340853 0.100788556
0.025117552 -0.117130086 -0.098911986 0.054807827 0.07036001 -0.095271446 -0.025650136 -0.0499033
-0.11036518 0.05458958 0.07502691 -0.003052156 0.107082434 0.08029692 0.10652654 0.040340677
-0.061730586 -0.06634365 0.05179988 -0.0684164 0.08316086 0.10466904 -0.116402365 -0.02859366
0.07969322 0.0025130622 0.10931161 -0.06259499 0.10095458 0.0126641095 0.09025773 0.046677962
-0.02918437 -0.09179715 -0.094283804 -0.09645198 0.07945414 0.053313572 0.031683013 0.0084683895
0.0812019 0.029308824 -0.111165844 -0.06968825 0.07326602 0.024932558 -0.09218507 -0.08422616
-0.119093314 -0.10497246 0.100126594 -0.067380756 -0.047609244 -0.086984746 0.050167784 -0.019865794
0.059500746 -0.03349832 -0.09824011 0.004517581 0.015199795 -0.09197019 -0.09723218 0.031779237
0.05819988 -0.09971047 -0.011611172 0.042698335 0.03505261 -0.006361856 -0.026883766 -0.08063533
-0.0024878855 -0.08521989 -0.0701863 -0.040926784 -0.007366146 -0.09624314 -0.020125935 -0.12539673
0.05394638 0.01081191 0.07416732 -0.016948685 0.11788048 0.09429926 -0.09140117 -0.06838606
0.12302106 0.09658496 -0.12097852 -0.025756497 0.051071417 -0.039872766 -0.053633213 -0.08613558
0.078932926 0.054441422 0.069284886 -0.0644048 -0.079695284 -0.065533966 0.047397047 0.03651525
0.024517747 0.058856558 0.066993035 0.058211394 -0.052530054 0.09284116 0.11917195 0.01151651
-0.096200585 0.072157845 0.07230719 -0.07100685 0.075536385 -0.06270469 -0.009521912 0.052775916
0.090250574 -0.006897588 0.06463757 0.08923883 -0.093157426 0.06709671 -0.12532377 -0.10081924
-0.04372452 -0.04117049 0.060445603 0.040154085 -0.023710048 0.11033633 -0.11352191 -0.11019513
0.07007294 0.08958052 -0.02870434 0.10747168 0.101852104 0.010840233 0.111274265 -0.04821084
0.030609956 -0.08807127 -0.056180052 0.11347541 0.10348369 0.07115873 0.04910993 -0.10855079
0.104048274 -0.116386525 -0.068748504 0.12625673 0.082314804 0.066048816 0.021624623 0.11802079
0.039531033 -0.055280425 -0.06748636 0.047392394 -0.04166688 0.056831714 0.047548886 -0.019193828
-0.05624659 -0.10511757 -0.094834834 -0.009586323 0.12942228 0.112148374 0.0332348 0.08960581
0.0726265 0.0358422 -0.099413 -0.104229845 0.056639977 -0.021586936 -0.047285903 -0.022562547
0.017259886 -0.06304636 0.057314724 -0.08132446 0.046206072 -0.11855034 -0.002431838 0.10709299
-0.094933376 0.06375355 -0.023578277 -0.062640704 0.116979234 0.045743983 0.06747601 -0.09219367
0.010822975 0.03866442 0.05956078 -0.078864075 0.019388074 0.099683195 -0.0027505734 -0.058673114
-0.012056384 -0.058693796 -0.080159225 0.0675206 -0.09972797 0.11018032 0.023372753 0.0450771
0.09486121 -0.1198316 -0.058058053 -0.11890732 0.0822064 0.083177894 0.09862817 0.03634298
00000000: 6a13 8dbd f468 2f3d d468 0e3d 6938 d3bc
00000010: c232 db3d 024d 2fbd 376d e8bd 18ee 293d
00000020: 099b dd3d c926 853d 8476 5c3d 2b56 fe3d
00000030: bcd6 cfbd e70e daba 7d69 eb3d 8099 19bd
00000040: cb80 023d 7c4d ad3d 40cd d2bc f0be eebd
00000050: 08a8 a2bc a0d0 c8bd 2166 d03d d07e 02bd
00000060: 7985 813c 85a7 323c 8e58 bcbd 9e58 69bd
00000070: e084 f5bc c86b 2cbd ff68 19bb 3b6a ce3d
00000080: 53c3 cd3c e6e1 efbd 5e92 cabd 2c7e 603d
00000090: e918 903d ad1d c3bd 3c20 d2bc 6767 4cbd
000000a0: 2407 e2bd 5399 5f3d b5a7 993d ae06 48bb
000000b0: 094e db3d b672 a43d 962a da3d 443c 253d
000000c0: 36d9 7cbd 2edf 87bd 1c2c 543d e61d 8cbd
000000d0: 3e50 aa3d b95c d63d 5d64 eebd 403d eabc
000000e0: 3336 a33d 30b2 243b c4de df3d cd31 80bd
000000f0: 46c1 ce3d 207d 4f3c 0bd9 b83d 6431 3f3d
00000100: 0f14 efbc 2500 bcbd de17 c1bd 9e88 c5bd
00000110: dab8 a23d 555f 5a3d 0cc6 013d 00bf 0a3c
00000120: 2f4d a63d 0f19 f03c ebaa e3bd b7b8 8ebd
00000130: 7f0c 963d 5d3f cc3c 87cb bcbd c47e acbd
00000140: 32e7 f3bd cdfb d6bd 2c0f cd3d ecfe 89bd
00000150: e901 43bd 0f25 b2bd bc7c 4d3d 97bd a2bc
00000160: 0eb7 733d 8935 09bd 1c32 c9bd 3708 943b
00000170: 9008 793c de5a bcbd aa21 c7bd f22a 023d
00000180: ff62 6e3d 0135 ccbd c93c 3ebc 73e4 2e3d
00000190: 5393 0f3d 1e77 d0bb 583b dcbc 2324 a5bd
000001a0: cb0b 23bb c487 aebd d6bd 8fbd d8a2 27bd
000001b0: b65f f1bb 201b c5bd 25df a4bc 0068 00be
000001c0: e1f6 5c3d 7024 313c 09e5 973d f8d7 8abc
000001d0: 526b f13d f81f c13d 8930 bbbd fe0d 8cbd
000001e0: 77f2 fb3d 56ce c53d 96c3 f7bd 4aff d2bc
000001f0: 4330 513d a051 23bd 80ae 5bbd da67 b0bd
00000200: 96a7 a13d f8fd 5e3d 3ce5 8d3d aae6 83bd
00000210: 4837 a3bd ac36 86bd 6823 423d 0491 153d
00000220: 71d9 c83c 9313 713d a533 893d 126f 6e3d
00000230: c129 57bd 8223 be3d 6c10 f43d beaf 3c3c
00000240: d004 c5bd 7ec7 933d cb15 943d 0a6c 91bd
00000250: d2b2 9a3d 516b 80bd cb01 1cbc 8f2b 583d
00000260: 4bd5 b83d 2905 e2bb b460 843d d9c2 b63d
00000270: 52c9 bebd 006a 893d e054 00be 517a cebd
00000280: 7b18 33bd 63a2 28bd cf95 773d 9c78 243d
00000290: 933b c2bc 04f8 e13d 2d7e e8bd fcad e1bd
000002a0: 6782 8f3d fe75 b73d 5d25 ebbc 1d1a dc3d
000002b0: d697 d03d 3c9b 313c c3e3 e33d bb78 45bd
000002c0: bbc1 fa3c b65e b4bd 0e1d 66bd cc65 e83d
000002d0: 42ef d33d abbb 913d 7e27 493d e04f debd
000002e0: 4317 d53d 0f5c eebd 04cc 8cbd 7249 013e
000002f0: aa94 a83d 9a44 873d 1f26 b13c e2b4 f13d
00000300: 4beb 213d ba6d 62bd 4a36 8abd 871e 423d
00000310: e4aa 2abd 5fc8 683d 9fc2 423d 603c 9dbc
00000320: d362 66bd e147 d7bd c438 c2bd f40f 1dbc
00000330: 4687 043e 0cae e53d 3721 083d 4083 b73d
00000340: 34bd 943d 45cf 123d 0b99 cbbd 7576 d5bd
00000350: 52ff 673d 16d7 b0bc ddae 41bd 17d5 b8bc
00000360: 9b64 8d3c 731e 81bd d8c2 6a3d 708d a6bd
00000370: 9442 3d3d 85ca f2bd 795f 1fbb 9253 db3d
00000380: 6e6c c2bd 3991 823d 3b27 c1bc c549 80bd
00000390: cf92 ef3d 0b5e 3b3d dd30 8a3d 09d0 bcbd
000003a0: d952 313c 955e 1e3d 01f6 733d 7d83 a1bd
000003b0: bdd3 9e3c b426 cc3d f742 34bb 3853 70bd
000003c0: 2488 45bc e868 70bd 852a a4bd 3e48 8a3d
000003d0: 2e3e ccbd 38a6 e13d 3778 bf3c c4a2 383d
000003e0: 9846 c23d 456a f5bd 48ce 6dbd ae85 f3bd
000003f0: d45b a83d 2c59 aa3d 91fd c93d 60dc 143d

fc2.bias f4 [32]
-0.06271735 -0.046518058 0.09909896 0.11773096 -0.07150512 -0.051108085 -0.07876917 0.1721758
-0.028917417 0.07408518 -0.035357535 0.09495355 0.023263026 -0.1066315 0.093228355 -0.09708442
-0.031042628 0.03372469 0.011919921 0.02920872 -0.06851633 0.12016859 0.047777425 0.053222924
-0.05715826 0.06358752 -0.0006925386 0.06543716 0.0034838915 0.116884224 0.072533 0.16280262
00000000: f471 80bd b889 3ebd 65f4 ca3d ee1c f13d
00000010: 4771 92bd b656 51bd bb51 a1bd da4e 303e
00000020: 38e4 ecbc f9b9 973d 10d3 10bd 0277 c23d
00000030: 1a92 be3c 9e61 dabd 82ee be3d 32d4 c6bd
00000040: 1c4d febc e722 0a3d c64b 433c 2047 ef3c
00000050: 4a52 8cbd f31a f63d 43b2 433d 4800 5a3d
00000060: c81e 6abd 2c3a 823d 7b8b 35ba eb03 863d
00000070: 0052 643b ff60 ef3d 2e8c 943d bbb5 263e

fc3.weight f4 [1, 32]
0.11095379 -0.18827362 -0.06823909 0.067066416 0.33104736 0.21863708 0.13415442 0.64788646
-0.08900023 -0.14309785 -0.12101376 -0.2583915 0.025046468 -0.015168086 -0.023934234 0.0025517654
0.07060975 0.2820127 -0.1467423 0.08272685 0.20195758 0.057738036 -0.016570974 0.27234438
0.0147295 0.11606182 0.058441374 0.21337199 -0.05067867 0.26920766 -0.24893953 0.32242498
00000000: be3b e33d cdca 40be f0c0 8bbd 1e5a 893d
00000010: 0a7f a93e 66e2 5f3e c75f 093e e3db 253f
00000020: c145 b6bd 3e88 12be 10d6 f7bd e44b 84be
00000030: 402e cd3c 9083 78bc ba11 c4bc 853b 273b
00000040: d89b 903d f863 903e 9d43 16be b26c a93d
00000050: f8cd 4e3e b87e 6c3d dabf 87bc b970 8b3e
00000060: 0054 713c d2b1 ed3d 3960 6f3d 307e 5a3e
00000070: 7094 4fbd 96d5 893e 01ea 7ebe e314 a53e
