model_params1.pth (torch, 12743 bytes, 5 tensors)

fc1.weight f4 [64, 7]
0	0xbe65943a	-0.22419825
1	0xc03a8516	-2.914373
2	0x3ffcbc76	1.9745014
3	0xc11900f7	-9.562736
4	0x40846183	4.1369033
5	0x3f48833c	0.7832525
6	0xbf7afcff	-0.9804229
7	0xc07ba12d	-3.9317124
8	0x40332394	2.7990465
9	0x4110e6d1	9.056352
10	0xbdcd4c27	-0.100242905
11	0xc018f8f9	-2.390196
12	0xc1034f31	-8.206834
13	0xc10cb18e	-8.793348
14	0xbfaa26f0	-1.3293133
15	0xbff192cb	-1.8872923
16	0xc09ed12f	-4.963035
17	0xc0520724	-3.2816858
18	0x4021a9fd	2.5260003
19	0x3fa6599d	1.2996098
20	0x412e6ae9	10.901101
21	0x40523ddf	3.2850263
22	0xbf51b10d	-0.81910783
23	0x40a847fc	5.258787
24	0x40950a73	4.6575255
25	0xbfff0cd1	-1.9925786
26	0xc0317fed	-2.773433
27	0xc0afd33a	-5.4945345
28	0x3f2f6f66	0.68529356
29	0xc0a34fed	-5.1035066
30	0xc04c707a	-3.194365
31	0x3f6f7aa8	0.93546534
32	0x412790b1	10.472825
33	0x4018e9b9	2.3892653
34	0xc0209a6d	-2.5094254
35	0x4149fefe	12.624754
36	0xc028c250	-2.63686
37	0xc0b3b3fa	-5.61572
38	0x3fabc147	1.3418359
39	0x4067e9fb	3.623656
40	0xbe8bbb65	-0.27291408
41	0xbfe7a5eb	-1.8097509
42	0xbdaf5bda	-0.08562441
43	0xbe281c23	-0.16416983
44	0xbecadc52	-0.39621216
45	0x3e29c09a	0.16577378
46	0xbe6c5357	-0.23078667
47	0xbe98d09e	-0.29846662
48	0xbe822a58	-0.2542293
49	0x3fdbe4c9	1.7179195
50	0xc01bb8f7	-2.4331644
51	0xc081ee71	-4.0603566
52	0x3e7f41e5	0.2492748
53	0xc081608e	-4.0430365
54	0x40890c20	4.28273
55	0x3f89011f	1.0703467
56	0x40c2128f	6.0647655
57	0xc0335b0f	-2.8024328
58	0xc0907bb8	-4.5151024
59	0xc0975ffb	-4.7304664
60	0xc0d08a72	-6.5169
61	0xc02ef1fc	-2.7335196
62	0x3f408cf7	0.75215095
63	0x41055670	8.333603
64	0x3f6806d3	0.9063541
65	0xc0250cdf	-2.5789106
66	0xc0f5fa9e	-7.686843
67	0x407931cf	3.893665
68	0x40644b52	3.5670972
69	0xc0046904	-2.0689096
70	0x401fcd89	2.4969199
71	0x40aa7cae	5.3277197
72	0xc0ad8f85	-5.4237695
73	0xc068054e	-3.6253238
74	0xc10a8290	-8.656876
75	0x3fc8236e	1.5635812
76	0x3fcb86ec	1.590055
77	0x3d7b189a	0.06130276
78	0x405188d3	3.273976
79	0x3fe0fcef	1.7577189
80	0xbf0ba1bb	-0.54543656
81	0x400d92f1	2.2120936
82	0xc112eaec	-9.182354
83	0xbf8c6930	-1.0969601
84	0xc124e673	-10.306262
85	0x4045f2f9	3.0929549
86	0x3e6663f6	0.2249907
87	0x409692fe	4.7054434
88	0xbd8af6c4	-0.06785348
89	0xbfdc85de	-1.7228353
90	0x3f4a1174	0.7893288
91	0xbf76bfa4	-0.9638617
92	0xc09645e9	-4.696034
93	0xc02fadd1	-2.744984
94	0x4017e860	2.373558
95	0xc08cb54a	-4.39713
96	0xc037d1af	-2.872173
97	0x40e29c51	7.0815816
98	0xbf862ad6	-1.0481822
99	0x3f8bdcb1	1.0926725
100	0x3f2a1633	0.66440123
101	0xbf6c5dba	-0.92330515
102	0x3f097250	0.5369005
103	0xbf2cb92f	-0.6747007
104	0xc031d376	-2.7785316
105	0xc01f910d	-2.4932282
106	0xbf59adae	-0.8503064
107	0x4157140d	13.442395
108	0x3ff535d9	1.9157058
109	0xc06b7a94	-3.6793566
110	0xc0b663e7	-5.699695
111	0xbe265caa	-0.16246286
112	0xbe7e1a97	-0.2481483
113	0x407b9972	3.9312406
114	0xc089424b	-4.2893424
115	0xc0bb6ff1	-5.8574147
116	0xc0fbc2a9	-7.867512
117	0x3e9423e6	0.28933638
118	0x40ab712b	5.3575644
119	0x3fdd5657	1.7291974
120	0x3f782529	0.969317
121	0x4087fff4	4.2499943
122	0xbdca598a	-0.098803595
123	0xc0a2a5a0	-5.082718
124	0x40a65335	5.197657
125	0xc1106731	-9.025193
126	0xbe66d65b	-0.22542708
127	0xbe86c500	-0.26322174
128	0xbe7328a8	-0.23745978
129	0xbe8a602c	-0.27026498
130	0xbd02ccf8	-0.031933755
131	0x3d71ae08	0.05900386
132	0x3db7fef4	0.08984175
133	0x4131dc6b	11.116313
134	0xbd424d4c	-0.047436997
135	0x409f09de	4.9699545
136	0xc08badf2	-4.3649836
137	0xc0b2931d	-5.580458
138	0xbc80040c	-0.01562693
139	0xc12888e0	-10.533417
140	0xc068a369	-3.6349738
141	0x4093dfe4	4.6210804
142	0xbdb31069	-0.08743364
143	0x406c1a7e	3.689117
144	0xc00b658e	-2.1780734
145	0xbf60c096	-0.8779386
146	0xc02148ba	-2.5200639
147	0x40954be4	4.665514
148	0x40d21c9b	6.565992
149	0xc000173b	-2.0014179
150	0xbfaaf785	-1.3356787
151	0x3f90fb76	1.132674
152	0xbf387ab2	-0.7206222
153	0x402cf322	2.7023396
154	0x3e2b018f	0.16699813
155	0x4103b179	8.230828
156	0x40995944	4.7921467
157	0x400a0d2e	2.1570544
158	0xbeface46	-0.489855
159	0xbf7b4441	-0.9815102
160	0x3edf1098	0.43567348
161	0x40071b29	2.1110327
162	0x3f283258	0.6570182
163	0xc0175e89	-2.365145
164	0xc105d8d7	-8.365439
165	0xc007bdaa	-2.1209512
166	0xbe8d616e	-0.27613395
167	0x40622264	3.533349
168	0x3f4cb6ae	0.7996625
169	0x40c4baa3	6.147783
170	0xc0a351ea	-5.1037493
171	0x3e889967	0.26679537
172	0x3fe3b577	1.7789754
173	0x4024c65c	2.574607
174	0xc0df0701	-6.969605
175	0xbda850d4	-0.08218542
176	0xbeb75a0e	-0.35810894
177	0xbce57570	-0.0280101
178	0xbe8cd71e	-0.2750787
179	0xbe1f0e77	-0.15532862
180	0x3e7841fa	0.24243918
181	0x3d264278	0.040590733
182	0x3e17bfa6	0.14819202
183	0xbd1d597d	-0.03841542
184	0xbfade0e7	-1.358426
185	0xc0aa36b6	-5.3191786
186	0xc0cce92d	-6.403464
187	0xc0ae1138	-5.439602
188	0xc0a4ed6d	-5.1539826
189	0xc0aae39f	-5.340286
190	0xc03a7a59	-2.9137175
191	0xbfe79384	-1.8091893
192	0x408511f0	4.1584396
193	0xc0a8994d	-5.2687135
194	0x3ed02dbb	0.4065989
195	0x405bc1b4	3.4336977
196	0x4003a1a8	2.0567417
197	0xbefcc614	-0.49369872
198	0xc04f252b	-3.2366436
199	0xbfdadd36	-1.7098758
200	0xbfc2835c	-1.5196338
201	0xbf7f1764	-0.99645066
202	0xc04a21c3	-3.1583107
203	0x3fa720c6	1.3056877
204	0x405b7e72	3.4295926
205	0xbe84d461	-0.25943282
206	0xc113ad8a	-9.229868
207	0xc0d47cc9	-6.6402326
208	0xbff49cc7	-1.9110345
209	0x40531f06	3.2987685
210	0xc0511845	-3.2671063
211	0x405cb599	3.4485838
212	0x3f964bb3	1.1741852
213	0xc0a78815	-5.2353616
214	0x3f9652d9	1.1744033
215	0xc05e56c3	-3.4740455
216	0x4085d4d5	4.1822305
217	0xbec257ac	-0.37957513
218	0x3f74fd35	0.95698863
219	0xc00c4351	-2.1916087
220	0xc1004514	-8.016865
221	0x40c4a103	6.1446548
222	0xbf3aec64	-0.73016953
223	0x405e5784	3.4740915
224	0x409092c6	4.5179167
225	0xc0a4fcfa	-5.155881
226	0xc0555e69	-3.3338873
227	0xc04544ff	-3.0823362
228	0xc126fee6	-10.437231
229	0x3ea67f70	0.32519102
230	0x40e3e4b0	7.121666
231	0x3f24219c	0.64113784
232	0xc0cfdcdd	-6.495711
233	0xc08920d8	-4.2852592
234	0xc1053e6a	-8.327738
235	0x4085933b	4.1742225
236	0x4038c644	2.8871012
237	0xbdf905c7	-0.12159305
238	0x3f5a0208	0.8515935
239	0x40762362	3.8459096
240	0xc0663020	-3.5966873
241	0xbfd2ee5c	-1.6478992
242	0xc03204bc	-2.781539
243	0xbfdcc23c	-1.7246776
244	0x40aedf59	5.464764
245	0xbfc906b6	-1.5705173
246	0xbfc25259	-1.518138
247	0xc074a3d9	-3.8225005
248	0x4092c6d1	4.5867696
249	0xc0d9d005	-6.806643
250	0x3f0e5a55	0.55606586
251	0x40323b90	2.7848854
252	0xc04deaa0	-3.2174454
253	0xc0a5e570	-5.1842575
254	0xc03b1858	-2.9233608
255	0xc09ee877	-4.965877

fc1.bias f4 [64]
0	0x3fbf4caf	1.4945277
1	0x3fcbb57a	1.5914757
2	0xc0f32581	-7.598328
3	0xbfc12e40	-1.5092239
4	0xc08aa69e	-4.332839
5	0xc116e096	-9.429831
6	0x3c48cab2	0.012255358
7	0xc02175a6	-2.5228057
8	0xbeaf6f3a	-0.34264547
9	0xc0f7829d	-7.734694
10	0xc0087e22	-2.1326985
11	0xbf5a2b99	-0.85222775
12	0xbfee54f2	-1.8619673
13	0xbeb959dd	-0.36201373
14	0xbe9b48f3	-0.30329093
15	0xbfb799c2	-1.4343798
16	0xc007a489	-2.1194174
17	0x3e9455d2	0.28971726
18	0xbe67690a	-0.22598663
19	0xc0aca34b	-5.394933
20	0xc0014747	-2.0199754
21	0xc10765e0	-8.462372
22	0xc103ceb3	-8.237964
23	0xc051a629	-3.2757666
24	0xbf0fecac	-0.5622051
25	0xbea27456	-0.31729382
26	0x40d12918	6.5362663
27	0xbfcd1087	-1.6020669
28	0xbed03a8c	-0.40669668
29	0x3efa59e2	0.488967
30	0xbfd062bd	-1.6280133
31	0xc040dbe0	-3.01342
32	0xc02e00e0	-2.7188034
33	0x400638bd	2.097213
34	0xc0829e76	-4.0818434
35	0xc015de17	-2.3416803
36	0x408de23c	4.4338665
37	0xbf6126b5	-0.8794969
38	0x3d968edc	0.07351467
39	0xc05dbaa6	-3.464517
40	0x3d5cd78c	0.0539165
41	0xc024d361	-2.5754015
42	0xc08b8268	-4.3596687
43	0xc0619794	-3.5248766
44	0xc0b16c71	-5.5444875
45	0xbfa83e00	-1.3143921
46	0xbe99fc69	-0.30075386
47	0xbf6717d6	-0.90270746
48	0xc06ce568	-3.7015018
49	0xbf0477ad	-0.5174511
50	0x3f330c89	0.69941
51	0xbfcd896a	-1.605756
52	0x4022ec6e	2.5456805
53	0xc0b1063c	-5.532011
54	0xbf807cd1	-1.0038091
55	0xc03a85a5	-2.914407
56	0xc02f0629	-2.734751
57	0x40331ffa	2.7988267
58	0xbebf2c7e	-0.37338632
59	0xbe958c2b	-0.29208502
60	0x3d425182	0.047441013
61	0xc08e41b3	-4.44552
62	0x41066f7a	8.402216
63	0x3f2a4cb6	0.665233

fc2.weight f4 [32, 64]
0	0x3e5bcab0	0.21464038
1	0x4020f847	2.5151536
2	0xbf0f2379	-0.559135
3	0xbf51cd45	-0.8195384
4	0x3e9de534	0.3083893
5	0x3f510a75	0.8165658
6	0xbdfef09e	-0.12448238
7	0x3fd61829	1.6726123
8	0xbfad0c87	-1.3519448
9	0xbfe6decc	-1.8036742
10	0xbdd16707	-0.10224729
11	0xbf75cf62	-0.96019566
12	0xc0318154	-2.7735186
13	0xbf7fe11d	-0.9995287
14	0x3cedc463	0.029024309
15	0xbfea6894	-1.8313165
16	0xbfe60202	-1.7969363
17	0xbf7dcad8	-0.9913764
18	0x3de8a794	0.11360088
19	0x405996de	3.3998332
20	0xbef63c58	-0.48092914
21	0xbfbcc42c	-1.4747367
22	0xc007da67	-2.1227052
23	0xbc5117a4	-0.012761984
24	0x3fbd6514	1.4796472
25	0xbd7742f0	-0.06036657
26	0xbeec25ad	-0.46122494
27	0xbe9dba42	-0.30806166
28	0x3e7b106a	0.2451798
29	0x400f7723	2.2416465
30	0xbe603304	-0.21894461
31	0xbe0050c1	-0.12530805
32	0xbf905873	-1.1276993
33	0xc03213ea	-2.7824655
34	0xbf85e64c	-1.0460906
35	0x3f8d68a7	1.1047562
36	0xbfd59e90	-1.6689014
37	0xbbf0c7c1	-0.0073480313
38	0xbdba858a	-0.09107502
39	0xbffc5f9b	-1.9716676
40	0x3dd7b141	0.105318554
41	0x3e2ea113	0.17053632
42	0xbf47c253	-0.7803089
43	0xbfa26c1f	-1.2689246
44	0xc06b554f	-3.6770818
45	0xbe7f95cb	-0.24959485
46	0xbdd00112	-0.10156454
47	0xbf6ef281	-0.9333878
48	0xc081508f	-4.041084
49	0xbfaaa4c3	-1.3331531
50	0xbe5cc539	-0.2155961
51	0x3ec5ca91	0.38631108
52	0xc03642d5	-2.847829
53	0xbf9a6930	-1.2063351
54	0xbfff707a	-1.99562
55	0x401d4262	2.4571767
56	0x4090b178	4.5216637
57	0xbf8f27e0	-1.1184044
58	0x3ca76ef8	0.020438656
59	0x3e847243	0.25868425
60	0xbef48ec2	-0.47765166
61	0xbf53b2d5	-0.8269475
62	0xc0a40642	-5.125764
63	0xc02976d4	-2.6478777
64	0xbfcf3282	-1.6187289
65	0x40080351	2.1252024
66	0xbe82d7c8	-0.25555253
67	0xc017482e	-2.3637805
68	0x3ff1fdb0	1.8905544
69	0x3e3f940f	0.18708824
70	0xbd74f4ff	-0.05980396
71	0xbf8aaf57	-1.083476
72	0xbea175a3	-0.31535062
73	0xbe559a62	-0.20859674
74	0x3ef116e0	0.47087765
75	0xbf6d4127	-0.9267754
76	0xbe6767e5	-0.22598226
77	0x3e729340	0.23688984
78	0x3f6708f0	0.9024801
79	0xbf94fdb1	-1.163992
80	0xbf56c478	-0.8389354
81	0x3e4e9c69	0.20176853
82	0x3de56a26	0.11201887
83	0x3f860c54	1.0472512
84	0xbf90c26f	-1.1309336
85	0x4004e612	2.0765424
86	0xc071b84f	-3.7768743
87	0x3fa142bd	1.2598492
88	0xbfc8d0d1	-1.5688726
89	0x3d8faf3a	0.07015844
90	0x3fd1bcac	1.6385703
91	0x3e2fe37e	0.17176625
92	0xbe8b0e65	-0.2715942
93	0xbf35ceb2	-0.71018517
94	0x3e12cc40	0.14335728
95	0xbf8443d7	-1.0333203
96	0x3f3a03f2	0.7266227
97	0xbdc0584f	-0.093918435
98	0x3d08c2f1	0.033389036
99	0x3e80f62d	0.25187817
100	0x3f0b202e	0.5434598
101	0x3dc066c5	0.09394602
102	0x3dbc4a38	0.091938436
103	0x3f68008a	0.9062582
104	0x3fee4530	1.8614864
105	0xbf46800b	-0.7753913
106	0x3ea77c0f	0.32711837
107	0x3f111d87	0.5668568
108	0xbde3dad0	-0.111257195
109	0x3efb292e	0.49054855
110	0x3dae086e	0.084977016
111	0x3e46ad64	0.19402081
112	0x3f7e8c13	0.99432486
113	0xbf08e86b	-0.5347964
114	0x3ff4dce5	1.9129912
115	0x3f9500a3	1.1640819
116	0xbe23e42e	-0.16005012
117	0x3ff04d6c	1.8773627
118	0x3f918ff9	1.1372062
119	0x3fc7cf8d	1.5610214
120	0xbe468879	-0.19387998
121	0xbf266642	-0.64999783
122	0xbd4fcc34	-0.050731853
123	0x3faa0a2b	1.3284353
124	0xbe18f2bc	-0.14936346
125	0xbf0e58f8	-0.55604506
126	0x3fd471b1	1.6597196
127	0x3ed6e1a0	0.41969013
128	0xbcac7058	-0.021049663
129	0x3c9fd8da	0.019512583
130	0xbdf5c58f	-0.12000572
131	0xbdd6cc72	-0.104882136
132	0x3b67e1be	0.0035382356
133	0x3c2f17dc	0.010686841
134	0xbd906e48	-0.070522845
135	0xbd92d158	-0.071688354
136	0x3db313b4	0.087439924
137	0xbd0d7981	-0.034539703
138	0xbcb723db	-0.022355964
139	0x3d5e288e	0.054237895
140	0xbe318276	-0.17334923
141	0xbca7f42e	-0.020502176
142	0xbbf9bd20	-0.0076214224
143	0xbe0afafc	-0.13572305
144	0xbd7da220	-0.061922193
145	0x3df65451	0.12027801
146	0x3d8dbc0a	0.06920631
147	0xbc2f81a5	-0.010712062
148	0xbe16fae8	-0.1474415
149	0xbdc18932	-0.09449996
150	0xbdb13005	-0.08651737
151	0xbd449a88	-0.047998935
152	0xbd6cf3e1	-0.05784977
153	0xbdd98c64	-0.106224805
154	0xbce0be5e	-0.027434524
155	0xbde4e160	-0.11175799
156	0xbdda6cab	-0.10665258
157	0xbdec86c1	-0.1154914
158	0x3d2e4085	0.042542
159	0x3d5d9bc5	0.05410363
160	0xbd4df302	-0.05028058
161	0xbd7e9878	-0.062157124
162	0x3d83f17d	0.064425446
163	0x3dd8c9fb	0.105854
164	0xbe0cf0c9	-0.13763727
165	0xbcb115b9	-0.021616803
166	0x3da7f1a6	0.08200388
167	0xbdf5d280	-0.1200304
168	0xbdac10cc	-0.08401641
169	0xbc93a730	-0.018024057
170	0x3da73a82	0.08165456
171	0x3d88197b	0.06645485
172	0xbc49e8b9	-0.012323552
173	0x3c7b112c	0.015323918
174	0xbda78efa	-0.081815675
175	0xbdf8a3fb	-0.12140652
176	0xbc4410f3	-0.011966932
177	0xbd0683f2	-0.032840677
178	0x3c2fbab3	0.010725665
179	0xbddb78e2	-0.10716416
180	0xbdbd61a9	-0.09247143
181	0x3d36462f	0.044500526
182	0x3c2ec4ea	0.010667065
183	0xbdb41ca6	-0.08794527
184	0x3c47a126	0.012184417
185	0x3d8dfdc8	0.069331706
186	0xbc2f2950	-0.010691002
187	0x3e08e156	0.13367209
188	0x3d8bf882	0.068345085
189	0xbd64a3e3	-0.055820357
190	0xbd978c6a	-0.07399829
191	0xbda919e4	-0.08256891
192	0x4041b813	3.02686
193	0x3fe7b3cb	1.8101743
194	0xc00be9ca	-2.1861444
195	0x3ec1c356	0.37844342
196	0x3ddae21b	0.106876574
197	0xc03ee509	-2.9827292
198	0x3dbaac3e	0.09114884
199	0x3f4a802e	0.79101837
200	0x3f3a826f	0.72855276
201	0x3e49c9f5	0.19705947
202	0x3de7298e	0.11287223
203	0xbfa5fbcc	-1.2967467
204	0xbef85ed6	-0.48509854
205	0x403af331	2.9210932
206	0x3ec592ff	0.38588712
207	0xbf8a9120	-1.0825539
208	0x3ecb7dc7	0.39744398
209	0x3de3e29f	0.11127209
210	0x3d9d6a42	0.07686283
211	0x4095407b	4.664121
212	0x3fa75baf	1.3074855
213	0xc0431ab1	-3.048504
214	0x3f3c4071	0.7353583
215	0xbe8887c6	-0.26666087
216	0xc00cc48f	-2.199497
217	0x3d7a01c8	0.061036855
218	0xbf52f644	-0.8240702
219	0x4000562e	2.00526
220	0xbe83cfca	-0.25744468
221	0xbf5e214c	-0.86769557
222	0x3f5da192	0.8657466
223	0x3e942c21	0.28939918
224	0x3eba0ca7	0.36337778
225	0x3f87043a	1.0548165
226	0x3ebcb928	0.36860013
227	0xbf82ea4c	-1.0227752
228	0xbf35722e	-0.7087735
229	0x3d5dfa52	0.054193802
230	0xbdaff214	-0.085910946
231	0x3f668b2e	0.9005612
232	0xbfa9102e	-1.3208063
233	0x40149527	2.3216035
234	0x3fae1e0c	1.360292
235	0x3d92c358	0.07166165
236	0x3d7003e7	0.05859747
237	0xbf813326	-1.0093734
238	0x3db750ba	0.08950944
239	0x3e782836	0.2423409
240	0x3f5c8496	0.8613981
241	0xbed534e7	-0.41641924
242	0xbf76c3b3	-0.96392363
243	0xbf8d8805	-1.1057135
244	0xbed78ef7	-0.4210126
245	0xbeacfb11	-0.33785298
246	0xbfee15e3	-1.8600429
247	0xbf6863de	-0.90777385
248	0xc00f5919	-2.239813
249	0xc0d6423d	-6.6955857
250	0x3dbfa2be	0.093572125
251	0x3a847a38	0.0010107225
252	0x3f865c11	1.0496846
253	0x3ec709e6	0.3887474
254	0x3fe7ea31	1.8118345
255	0x3f48597f	0.7826156

fc2.bias f4 [32]
0	0xbf306c03	-0.6891481
1	0xc02209f8	-2.5318584
2	0xbe284ec8	-0.16436303
3	0xc03997a8	-2.8998814
4	0x402a3b2e	2.659862
5	0x3f8b147b	1.0865625
6	0x3fcb9437	1.5904607
7	0x3e37d733	0.17953186
8	0xbfe85c94	-1.8153253
9	0xbd4587e1	-0.048225287
10	0xc0a1aa2b	-5.0520225
11	0x3f5e19cb	0.86758107
12	0x40092398	2.1427975
13	0xc0827350	-4.076576
14	0xc01de0c3	-2.4668434
15	0xc068a3f1	-3.6350062
16	0xbf4db960	-0.80360985
17	0x4007fd05	2.124818
18	0xbea5e89d	-0.32404032
19	0x4027b1c0	2.620224
20	0xbf45b340	-0.7722664
21	0x408bd55d	4.3697953
22	0x3ffef218	1.9917631
23	0x3f28d8e2	0.65955937
24	0xc0141404	-2.3137217
25	0xc01527cb	-2.3305538
26	0x3f454571	0.77059084
27	0x3fae6e3d	1.3627392
28	0x4000324d	2.00307
29	0xc086c0c7	-4.2110324
30	0xc02c357c	-2.6907644
31	0xc023478f	-2.5512426

fc3.weight f4 [1, 32]
0	0xbfe43ce7	-1.7831086
1	0x3f9a6366	1.2061584
2	0x3e98af44	0.29821217
3	0x3fdbc54d	1.7169586
4	0x4025ebaa	2.5925088
5	0x3f5e8770	0.8692541
6	0x3f932909	1.1496898
7	0x40124e95	2.2860463
8	0x3fb6f4ff	1.4293517
9	0xc03cb9f6	-2.9488502
10	0xc00a7393	-2.163304
11	0x3f8a664c	1.0812469
12	0x3f904ab7	1.1272801
13	0x3f8cf16d	1.1011177
14	0xc01522f2	-2.330258
15	0x40947cd7	4.6402392
16	0x3fd4e5f5	1.6632677
17	0x3f895055	1.072764
18	0x4041c5cc	3.0276976
19	0x3f8c2be5	1.0950896
20	0x3fac2d62	1.345135
21	0xc00d4439	-2.207289
22	0x3f8f1656	1.1178691
23	0x400cefcf	2.2021368
24	0x3f9337ad	1.1501366
25	0x40800418	4.0004997
26	0x3ff91a4a	1.9461148
27	0x3f790ef3	0.97288436
28	0x3fde3e3d	1.7362744
29	0xbfb698a2	-1.426533
30	0xc01bec9b	-2.4363163
31	0xbf488e6d	-0.78342324
